// -----// IR Dump After AssignTargetDevicesPass (iree-hal-assign-target-devices) //----- //
#executable_target_embedded_elf_arm_64_ = #hal.executable.target<"llvm-cpu", "embedded-elf-arm_64", {cpu = "", cpu_features = "+reserve-x18", data_layout = "e-m:e-i8:8:32-i16:16:32-i64:64-i128:128-n32:64-S128-Fn32", native_vector_size = 16 : i64, target_triple = "aarch64-unknown-unknown-eabi-elf"}>
#device_target_local = #hal.device.target<"local", [#executable_target_embedded_elf_arm_64_]>
module attributes {hal.device.targets = [#device_target_local]} {
  func.func @add(%arg0: tensor<3x2xf32>, %arg1: tensor<1x1xf32>) -> tensor<3x2xf32> {
    %0 = tosa.add %arg0, %arg1 : (tensor<3x2xf32>, tensor<1x1xf32>) -> tensor<3x2xf32>
    return %0 : tensor<3x2xf32>
  }
}


// -----// IR Dump After TosaToMLProgram (tosa-to-mlprogram) //----- //
#executable_target_embedded_elf_arm_64_ = #hal.executable.target<"llvm-cpu", "embedded-elf-arm_64", {cpu = "", cpu_features = "+reserve-x18", data_layout = "e-m:e-i8:8:32-i16:16:32-i64:64-i128:128-n32:64-S128-Fn32", native_vector_size = 16 : i64, target_triple = "aarch64-unknown-unknown-eabi-elf"}>
#device_target_local = #hal.device.target<"local", [#executable_target_embedded_elf_arm_64_]>
module attributes {hal.device.targets = [#device_target_local]} {
  func.func @add(%arg0: tensor<3x2xf32>, %arg1: tensor<1x1xf32>) -> tensor<3x2xf32> {
    %0 = tosa.add %arg0, %arg1 : (tensor<3x2xf32>, tensor<1x1xf32>) -> tensor<3x2xf32>
    return %0 : tensor<3x2xf32>
  }
}


// -----// IR Dump After TosaToSCF (tosa-to-scf) //----- //
func.func @add(%arg0: tensor<3x2xf32>, %arg1: tensor<1x1xf32>) -> tensor<3x2xf32> {
  %0 = tosa.add %arg0, %arg1 : (tensor<3x2xf32>, tensor<1x1xf32>) -> tensor<3x2xf32>
  return %0 : tensor<3x2xf32>
}

// -----// IR Dump After Canonicalizer (canonicalize) //----- //
func.func @add(%arg0: tensor<3x2xf32>, %arg1: tensor<1x1xf32>) -> tensor<3x2xf32> {
  %0 = tosa.add %arg0, %arg1 : (tensor<3x2xf32>, tensor<1x1xf32>) -> tensor<3x2xf32>
  return %0 : tensor<3x2xf32>
}

// -----// IR Dump After Inliner (inline) //----- //
#executable_target_embedded_elf_arm_64_ = #hal.executable.target<"llvm-cpu", "embedded-elf-arm_64", {cpu = "", cpu_features = "+reserve-x18", data_layout = "e-m:e-i8:8:32-i16:16:32-i64:64-i128:128-n32:64-S128-Fn32", native_vector_size = 16 : i64, target_triple = "aarch64-unknown-unknown-eabi-elf"}>
#device_target_local = #hal.device.target<"local", [#executable_target_embedded_elf_arm_64_]>
module attributes {hal.device.targets = [#device_target_local]} {
  func.func @add(%arg0: tensor<3x2xf32>, %arg1: tensor<1x1xf32>) -> tensor<3x2xf32> {
    %0 = tosa.add %arg0, %arg1 : (tensor<3x2xf32>, tensor<1x1xf32>) -> tensor<3x2xf32>
    return %0 : tensor<3x2xf32>
  }
}


// -----// IR Dump After TosaMakeBroadcastable (tosa-make-broadcastable) //----- //
func.func @add(%arg0: tensor<3x2xf32>, %arg1: tensor<1x1xf32>) -> tensor<3x2xf32> {
  %0 = tosa.add %arg0, %arg1 : (tensor<3x2xf32>, tensor<1x1xf32>) -> tensor<3x2xf32>
  return %0 : tensor<3x2xf32>
}

// -----// IR Dump After TosaToArith (tosa-to-arith) //----- //
func.func @add(%arg0: tensor<3x2xf32>, %arg1: tensor<1x1xf32>) -> tensor<3x2xf32> {
  %0 = tosa.add %arg0, %arg1 : (tensor<3x2xf32>, tensor<1x1xf32>) -> tensor<3x2xf32>
  return %0 : tensor<3x2xf32>
}

// -----// IR Dump After TosaToTensor (tosa-to-tensor) //----- //
func.func @add(%arg0: tensor<3x2xf32>, %arg1: tensor<1x1xf32>) -> tensor<3x2xf32> {
  %0 = tosa.add %arg0, %arg1 : (tensor<3x2xf32>, tensor<1x1xf32>) -> tensor<3x2xf32>
  return %0 : tensor<3x2xf32>
}

// -----// IR Dump After TosaToLinalgExt (iree-tosa-to-linalg-ext) //----- //
func.func @add(%arg0: tensor<3x2xf32>, %arg1: tensor<1x1xf32>) -> tensor<3x2xf32> {
  %0 = tosa.add %arg0, %arg1 : (tensor<3x2xf32>, tensor<1x1xf32>) -> tensor<3x2xf32>
  return %0 : tensor<3x2xf32>
}

// -----// IR Dump After Canonicalizer (canonicalize) //----- //
func.func @add(%arg0: tensor<3x2xf32>, %arg1: tensor<1x1xf32>) -> tensor<3x2xf32> {
  %0 = tosa.add %arg0, %arg1 : (tensor<3x2xf32>, tensor<1x1xf32>) -> tensor<3x2xf32>
  return %0 : tensor<3x2xf32>
}

// -----// IR Dump After TosaOptionalDecompositions (tosa-optional-decompositions) //----- //
func.func @add(%arg0: tensor<3x2xf32>, %arg1: tensor<1x1xf32>) -> tensor<3x2xf32> {
  %0 = tosa.add %arg0, %arg1 : (tensor<3x2xf32>, tensor<1x1xf32>) -> tensor<3x2xf32>
  return %0 : tensor<3x2xf32>
}

// -----// IR Dump After Canonicalizer (canonicalize) //----- //
func.func @add(%arg0: tensor<3x2xf32>, %arg1: tensor<1x1xf32>) -> tensor<3x2xf32> {
  %0 = tosa.add %arg0, %arg1 : (tensor<3x2xf32>, tensor<1x1xf32>) -> tensor<3x2xf32>
  return %0 : tensor<3x2xf32>
}

// -----// IR Dump After TosaInferShapes (tosa-infer-shapes) //----- //
func.func @add(%arg0: tensor<3x2xf32>, %arg1: tensor<1x1xf32>) -> tensor<3x2xf32> {
  %0 = tosa.add %arg0, %arg1 : (tensor<3x2xf32>, tensor<1x1xf32>) -> tensor<3x2xf32>
  return %0 : tensor<3x2xf32>
}

// -----// IR Dump After TosaMakeBroadcastable (tosa-make-broadcastable) //----- //
func.func @add(%arg0: tensor<3x2xf32>, %arg1: tensor<1x1xf32>) -> tensor<3x2xf32> {
  %0 = tosa.add %arg0, %arg1 : (tensor<3x2xf32>, tensor<1x1xf32>) -> tensor<3x2xf32>
  return %0 : tensor<3x2xf32>
}

// -----// IR Dump After TosaToLinalgNamed (tosa-to-linalg-named) //----- //
func.func @add(%arg0: tensor<3x2xf32>, %arg1: tensor<1x1xf32>) -> tensor<3x2xf32> {
  %0 = tosa.add %arg0, %arg1 : (tensor<3x2xf32>, tensor<1x1xf32>) -> tensor<3x2xf32>
  return %0 : tensor<3x2xf32>
}

// -----// IR Dump After Canonicalizer (canonicalize) //----- //
func.func @add(%arg0: tensor<3x2xf32>, %arg1: tensor<1x1xf32>) -> tensor<3x2xf32> {
  %0 = tosa.add %arg0, %arg1 : (tensor<3x2xf32>, tensor<1x1xf32>) -> tensor<3x2xf32>
  return %0 : tensor<3x2xf32>
}

// -----// IR Dump After TosaLayerwiseConstantFoldPass (tosa-layerwise-constant-fold) //----- //
func.func @add(%arg0: tensor<3x2xf32>, %arg1: tensor<1x1xf32>) -> tensor<3x2xf32> {
  %0 = tosa.add %arg0, %arg1 : (tensor<3x2xf32>, tensor<1x1xf32>) -> tensor<3x2xf32>
  return %0 : tensor<3x2xf32>
}

// -----// IR Dump After TosaMakeBroadcastable (tosa-make-broadcastable) //----- //
func.func @add(%arg0: tensor<3x2xf32>, %arg1: tensor<1x1xf32>) -> tensor<3x2xf32> {
  %0 = tosa.add %arg0, %arg1 : (tensor<3x2xf32>, tensor<1x1xf32>) -> tensor<3x2xf32>
  return %0 : tensor<3x2xf32>
}

// -----// IR Dump After TosaValidation (tosa-validate) //----- //
#executable_target_embedded_elf_arm_64_ = #hal.executable.target<"llvm-cpu", "embedded-elf-arm_64", {cpu = "", cpu_features = "+reserve-x18", data_layout = "e-m:e-i8:8:32-i16:16:32-i64:64-i128:128-n32:64-S128-Fn32", native_vector_size = 16 : i64, target_triple = "aarch64-unknown-unknown-eabi-elf"}>
#device_target_local = #hal.device.target<"local", [#executable_target_embedded_elf_arm_64_]>
module attributes {hal.device.targets = [#device_target_local]} {
  func.func @add(%arg0: tensor<3x2xf32>, %arg1: tensor<1x1xf32>) -> tensor<3x2xf32> {
    %0 = tosa.add %arg0, %arg1 : (tensor<3x2xf32>, tensor<1x1xf32>) -> tensor<3x2xf32>
    return %0 : tensor<3x2xf32>
  }
}


// -----// IR Dump After TosaToLinalg (tosa-to-linalg) //----- //
func.func @add(%arg0: tensor<3x2xf32>, %arg1: tensor<1x1xf32>) -> tensor<3x2xf32> {
  %0 = tensor.empty() : tensor<3x2xf32>
  %1 = linalg.generic {indexing_maps = [affine_map<(d0, d1) -> (d0, d1)>, affine_map<(d0, d1) -> (0, 0)>, affine_map<(d0, d1) -> (d0, d1)>], iterator_types = ["parallel", "parallel"]} ins(%arg0, %arg1 : tensor<3x2xf32>, tensor<1x1xf32>) outs(%0 : tensor<3x2xf32>) {
  ^bb0(%in: f32, %in_0: f32, %out: f32):
    %2 = arith.addf %in, %in_0 : f32
    linalg.yield %2 : f32
  } -> tensor<3x2xf32>
  return %1 : tensor<3x2xf32>
}

// -----// IR Dump After Converti48Toi64 (iree-tosa-convert-i48-to-i64) //----- //
func.func @add(%arg0: tensor<3x2xf32>, %arg1: tensor<1x1xf32>) -> tensor<3x2xf32> {
  %0 = tensor.empty() : tensor<3x2xf32>
  %1 = linalg.generic {indexing_maps = [affine_map<(d0, d1) -> (d0, d1)>, affine_map<(d0, d1) -> (0, 0)>, affine_map<(d0, d1) -> (d0, d1)>], iterator_types = ["parallel", "parallel"]} ins(%arg0, %arg1 : tensor<3x2xf32>, tensor<1x1xf32>) outs(%0 : tensor<3x2xf32>) {
  ^bb0(%in: f32, %in_0: f32, %out: f32):
    %2 = arith.addf %in, %in_0 : f32
    linalg.yield %2 : f32
  } -> tensor<3x2xf32>
  return %1 : tensor<3x2xf32>
}

// -----// IR Dump After TosaToArith (tosa-to-arith) //----- //
func.func @add(%arg0: tensor<3x2xf32>, %arg1: tensor<1x1xf32>) -> tensor<3x2xf32> {
  %0 = tensor.empty() : tensor<3x2xf32>
  %1 = linalg.generic {indexing_maps = [affine_map<(d0, d1) -> (d0, d1)>, affine_map<(d0, d1) -> (0, 0)>, affine_map<(d0, d1) -> (d0, d1)>], iterator_types = ["parallel", "parallel"]} ins(%arg0, %arg1 : tensor<3x2xf32>, tensor<1x1xf32>) outs(%0 : tensor<3x2xf32>) {
  ^bb0(%in: f32, %in_0: f32, %out: f32):
    %2 = arith.addf %in, %in_0 : f32
    linalg.yield %2 : f32
  } -> tensor<3x2xf32>
  return %1 : tensor<3x2xf32>
}

// -----// IR Dump After TosaToTensor (tosa-to-tensor) //----- //
func.func @add(%arg0: tensor<3x2xf32>, %arg1: tensor<1x1xf32>) -> tensor<3x2xf32> {
  %0 = tensor.empty() : tensor<3x2xf32>
  %1 = linalg.generic {indexing_maps = [affine_map<(d0, d1) -> (d0, d1)>, affine_map<(d0, d1) -> (0, 0)>, affine_map<(d0, d1) -> (d0, d1)>], iterator_types = ["parallel", "parallel"]} ins(%arg0, %arg1 : tensor<3x2xf32>, tensor<1x1xf32>) outs(%0 : tensor<3x2xf32>) {
  ^bb0(%in: f32, %in_0: f32, %out: f32):
    %2 = arith.addf %in, %in_0 : f32
    linalg.yield %2 : f32
  } -> tensor<3x2xf32>
  return %1 : tensor<3x2xf32>
}

// -----// IR Dump After StripSignedness (iree-tosa-strip-signedness) //----- //
func.func @add(%arg0: tensor<3x2xf32>, %arg1: tensor<1x1xf32>) -> tensor<3x2xf32> {
  %0 = tensor.empty() : tensor<3x2xf32>
  %1 = linalg.generic {indexing_maps = [affine_map<(d0, d1) -> (d0, d1)>, affine_map<(d0, d1) -> (0, 0)>, affine_map<(d0, d1) -> (d0, d1)>], iterator_types = ["parallel", "parallel"]} ins(%arg0, %arg1 : tensor<3x2xf32>, tensor<1x1xf32>) outs(%0 : tensor<3x2xf32>) {
  ^bb0(%in: f32, %in_0: f32, %out: f32):
    %2 = arith.addf %in, %in_0 : f32
    linalg.yield %2 : f32
  } -> tensor<3x2xf32>
  return %1 : tensor<3x2xf32>
}

// -----// IR Dump After Canonicalizer (canonicalize) //----- //
func.func @add(%arg0: tensor<3x2xf32>, %arg1: tensor<1x1xf32>) -> tensor<3x2xf32> {
  %0 = tensor.empty() : tensor<3x2xf32>
  %1 = linalg.generic {indexing_maps = [affine_map<(d0, d1) -> (d0, d1)>, affine_map<(d0, d1) -> (0, 0)>, affine_map<(d0, d1) -> (d0, d1)>], iterator_types = ["parallel", "parallel"]} ins(%arg0, %arg1 : tensor<3x2xf32>, tensor<1x1xf32>) outs(%0 : tensor<3x2xf32>) {
  ^bb0(%in: f32, %in_0: f32, %out: f32):
    %2 = arith.addf %in, %in_0 : f32
    linalg.yield %2 : f32
  } -> tensor<3x2xf32>
  return %1 : tensor<3x2xf32>
}

// -----// IR Dump After LinalgQuantizedMatmulToMatmulPass (iree-linalg-quantized-matmul-to-matmul) //----- //
func.func @add(%arg0: tensor<3x2xf32>, %arg1: tensor<1x1xf32>) -> tensor<3x2xf32> {
  %0 = tensor.empty() : tensor<3x2xf32>
  %1 = linalg.generic {indexing_maps = [affine_map<(d0, d1) -> (d0, d1)>, affine_map<(d0, d1) -> (0, 0)>, affine_map<(d0, d1) -> (d0, d1)>], iterator_types = ["parallel", "parallel"]} ins(%arg0, %arg1 : tensor<3x2xf32>, tensor<1x1xf32>) outs(%0 : tensor<3x2xf32>) {
  ^bb0(%in: f32, %in_0: f32, %out: f32):
    %2 = arith.addf %in, %in_0 : f32
    linalg.yield %2 : f32
  } -> tensor<3x2xf32>
  return %1 : tensor<3x2xf32>
}

// -----// IR Dump After LinalgQuantizedConvToConvPass (iree-linalg-quantized-conv-to-conv) //----- //
func.func @add(%arg0: tensor<3x2xf32>, %arg1: tensor<1x1xf32>) -> tensor<3x2xf32> {
  %0 = tensor.empty() : tensor<3x2xf32>
  %1 = linalg.generic {indexing_maps = [affine_map<(d0, d1) -> (d0, d1)>, affine_map<(d0, d1) -> (0, 0)>, affine_map<(d0, d1) -> (d0, d1)>], iterator_types = ["parallel", "parallel"]} ins(%arg0, %arg1 : tensor<3x2xf32>, tensor<1x1xf32>) outs(%0 : tensor<3x2xf32>) {
  ^bb0(%in: f32, %in_0: f32, %out: f32):
    %2 = arith.addf %in, %in_0 : f32
    linalg.yield %2 : f32
  } -> tensor<3x2xf32>
  return %1 : tensor<3x2xf32>
}

// -----// IR Dump After Canonicalizer (canonicalize) //----- //
func.func @add(%arg0: tensor<3x2xf32>, %arg1: tensor<1x1xf32>) -> tensor<3x2xf32> {
  %0 = tensor.empty() : tensor<3x2xf32>
  %1 = linalg.generic {indexing_maps = [affine_map<(d0, d1) -> (d0, d1)>, affine_map<(d0, d1) -> (0, 0)>, affine_map<(d0, d1) -> (d0, d1)>], iterator_types = ["parallel", "parallel"]} ins(%arg0, %arg1 : tensor<3x2xf32>, tensor<1x1xf32>) outs(%0 : tensor<3x2xf32>) {
  ^bb0(%in: f32, %in_0: f32, %out: f32):
    %2 = arith.addf %in, %in_0 : f32
    linalg.yield %2 : f32
  } -> tensor<3x2xf32>
  return %1 : tensor<3x2xf32>
}

// -----// IR Dump After VerifyCompilerTOSAInputLegality (iree-tosa-verify-compiler-input-legality) //----- //
#executable_target_embedded_elf_arm_64_ = #hal.executable.target<"llvm-cpu", "embedded-elf-arm_64", {cpu = "", cpu_features = "+reserve-x18", data_layout = "e-m:e-i8:8:32-i16:16:32-i64:64-i128:128-n32:64-S128-Fn32", native_vector_size = 16 : i64, target_triple = "aarch64-unknown-unknown-eabi-elf"}>
#map = affine_map<(d0, d1) -> (d0, d1)>
#map1 = affine_map<(d0, d1) -> (0, 0)>
#device_target_local = #hal.device.target<"local", [#executable_target_embedded_elf_arm_64_]>
module attributes {hal.device.targets = [#device_target_local]} {
  func.func @add(%arg0: tensor<3x2xf32>, %arg1: tensor<1x1xf32>) -> tensor<3x2xf32> {
    %0 = tensor.empty() : tensor<3x2xf32>
    %1 = linalg.generic {indexing_maps = [#map, #map1, #map], iterator_types = ["parallel", "parallel"]} ins(%arg0, %arg1 : tensor<3x2xf32>, tensor<1x1xf32>) outs(%0 : tensor<3x2xf32>) {
    ^bb0(%in: f32, %in_0: f32, %out: f32):
      %2 = arith.addf %in, %in_0 : f32
      linalg.yield %2 : f32
    } -> tensor<3x2xf32>
    return %1 : tensor<3x2xf32>
  }
}


// -----// IR Dump After AutoInputConversionPipeline (iree-auto-input-conversion) //----- //
#executable_target_embedded_elf_arm_64_ = #hal.executable.target<"llvm-cpu", "embedded-elf-arm_64", {cpu = "", cpu_features = "+reserve-x18", data_layout = "e-m:e-i8:8:32-i16:16:32-i64:64-i128:128-n32:64-S128-Fn32", native_vector_size = 16 : i64, target_triple = "aarch64-unknown-unknown-eabi-elf"}>
#map = affine_map<(d0, d1) -> (d0, d1)>
#map1 = affine_map<(d0, d1) -> (0, 0)>
#device_target_local = #hal.device.target<"local", [#executable_target_embedded_elf_arm_64_]>
module attributes {hal.device.targets = [#device_target_local]} {
  func.func @add(%arg0: tensor<3x2xf32>, %arg1: tensor<1x1xf32>) -> tensor<3x2xf32> {
    %0 = tensor.empty() : tensor<3x2xf32>
    %1 = linalg.generic {indexing_maps = [#map, #map1, #map], iterator_types = ["parallel", "parallel"]} ins(%arg0, %arg1 : tensor<3x2xf32>, tensor<1x1xf32>) outs(%0 : tensor<3x2xf32>) {
    ^bb0(%in: f32, %in_0: f32, %out: f32):
      %2 = arith.addf %in, %in_0 : f32
      linalg.yield %2 : f32
    } -> tensor<3x2xf32>
    return %1 : tensor<3x2xf32>
  }
}


// -----// IR Dump After IREEImportPublic (iree-import-public) //----- //
#executable_target_embedded_elf_arm_64_ = #hal.executable.target<"llvm-cpu", "embedded-elf-arm_64", {cpu = "", cpu_features = "+reserve-x18", data_layout = "e-m:e-i8:8:32-i16:16:32-i64:64-i128:128-n32:64-S128-Fn32", native_vector_size = 16 : i64, target_triple = "aarch64-unknown-unknown-eabi-elf"}>
#map = affine_map<(d0, d1) -> (d0, d1)>
#map1 = affine_map<(d0, d1) -> (0, 0)>
#device_target_local = #hal.device.target<"local", [#executable_target_embedded_elf_arm_64_]>
module attributes {hal.device.targets = [#device_target_local]} {
  util.func public @add(%arg0: tensor<3x2xf32>, %arg1: tensor<1x1xf32>) -> tensor<3x2xf32> {
    %0 = tensor.empty() : tensor<3x2xf32>
    %1 = linalg.generic {indexing_maps = [#map, #map1, #map], iterator_types = ["parallel", "parallel"]} ins(%arg0, %arg1 : tensor<3x2xf32>, tensor<1x1xf32>) outs(%0 : tensor<3x2xf32>) {
    ^bb0(%in: f32, %in_0: f32, %out: f32):
      %2 = arith.addf %in, %in_0 : f32
      linalg.yield %2 : f32
    } -> tensor<3x2xf32>
    util.return %1 : tensor<3x2xf32>
  }
}


// -----// IR Dump After ImportMLProgram (iree-import-ml-program) //----- //
#executable_target_embedded_elf_arm_64_ = #hal.executable.target<"llvm-cpu", "embedded-elf-arm_64", {cpu = "", cpu_features = "+reserve-x18", data_layout = "e-m:e-i8:8:32-i16:16:32-i64:64-i128:128-n32:64-S128-Fn32", native_vector_size = 16 : i64, target_triple = "aarch64-unknown-unknown-eabi-elf"}>
#map = affine_map<(d0, d1) -> (d0, d1)>
#map1 = affine_map<(d0, d1) -> (0, 0)>
#device_target_local = #hal.device.target<"local", [#executable_target_embedded_elf_arm_64_]>
module attributes {hal.device.targets = [#device_target_local]} {
  util.func public @add(%arg0: tensor<3x2xf32>, %arg1: tensor<1x1xf32>) -> tensor<3x2xf32> {
    %0 = tensor.empty() : tensor<3x2xf32>
    %1 = linalg.generic {indexing_maps = [#map, #map1, #map], iterator_types = ["parallel", "parallel"]} ins(%arg0, %arg1 : tensor<3x2xf32>, tensor<1x1xf32>) outs(%0 : tensor<3x2xf32>) {
    ^bb0(%in: f32, %in_0: f32, %out: f32):
      %2 = arith.addf %in, %in_0 : f32
      linalg.yield %2 : f32
    } -> tensor<3x2xf32>
    util.return %1 : tensor<3x2xf32>
  }
}


// -----// IR Dump After SanitizeModuleNames (iree-sanitize-module-names) //----- //
#executable_target_embedded_elf_arm_64_ = #hal.executable.target<"llvm-cpu", "embedded-elf-arm_64", {cpu = "", cpu_features = "+reserve-x18", data_layout = "e-m:e-i8:8:32-i16:16:32-i64:64-i128:128-n32:64-S128-Fn32", native_vector_size = 16 : i64, target_triple = "aarch64-unknown-unknown-eabi-elf"}>
#map = affine_map<(d0, d1) -> (d0, d1)>
#map1 = affine_map<(d0, d1) -> (0, 0)>
#device_target_local = #hal.device.target<"local", [#executable_target_embedded_elf_arm_64_]>
module attributes {hal.device.targets = [#device_target_local]} {
  util.func public @add(%arg0: tensor<3x2xf32>, %arg1: tensor<1x1xf32>) -> tensor<3x2xf32> {
    %0 = tensor.empty() : tensor<3x2xf32>
    %1 = linalg.generic {indexing_maps = [#map, #map1, #map], iterator_types = ["parallel", "parallel"]} ins(%arg0, %arg1 : tensor<3x2xf32>, tensor<1x1xf32>) outs(%0 : tensor<3x2xf32>) {
    ^bb0(%in: f32, %in_0: f32, %out: f32):
      %2 = arith.addf %in, %in_0 : f32
      linalg.yield %2 : f32
    } -> tensor<3x2xf32>
    util.return %1 : tensor<3x2xf32>
  }
}


// -----// IR Dump After ConvertMeshToFlowPass (iree-convert-mesh-to-flow) //----- //
#executable_target_embedded_elf_arm_64_ = #hal.executable.target<"llvm-cpu", "embedded-elf-arm_64", {cpu = "", cpu_features = "+reserve-x18", data_layout = "e-m:e-i8:8:32-i16:16:32-i64:64-i128:128-n32:64-S128-Fn32", native_vector_size = 16 : i64, target_triple = "aarch64-unknown-unknown-eabi-elf"}>
#map = affine_map<(d0, d1) -> (d0, d1)>
#map1 = affine_map<(d0, d1) -> (0, 0)>
#device_target_local = #hal.device.target<"local", [#executable_target_embedded_elf_arm_64_]>
module attributes {hal.device.targets = [#device_target_local]} {
  util.func public @add(%arg0: tensor<3x2xf32>, %arg1: tensor<1x1xf32>) -> tensor<3x2xf32> {
    %0 = tensor.empty() : tensor<3x2xf32>
    %1 = linalg.generic {indexing_maps = [#map, #map1, #map], iterator_types = ["parallel", "parallel"]} ins(%arg0, %arg1 : tensor<3x2xf32>, tensor<1x1xf32>) outs(%0 : tensor<3x2xf32>) {
    ^bb0(%in: f32, %in_0: f32, %out: f32):
      %2 = arith.addf %in, %in_0 : f32
      linalg.yield %2 : f32
    } -> tensor<3x2xf32>
    util.return %1 : tensor<3x2xf32>
  }
}


// -----// IR Dump After DemoteF64ToF32 (iree-input-conversion-demote-f64-to-f32) //----- //
#executable_target_embedded_elf_arm_64_ = #hal.executable.target<"llvm-cpu", "embedded-elf-arm_64", {cpu = "", cpu_features = "+reserve-x18", data_layout = "e-m:e-i8:8:32-i16:16:32-i64:64-i128:128-n32:64-S128-Fn32", native_vector_size = 16 : i64, target_triple = "aarch64-unknown-unknown-eabi-elf"}>
#map = affine_map<(d0, d1) -> (d0, d1)>
#map1 = affine_map<(d0, d1) -> (0, 0)>
#device_target_local = #hal.device.target<"local", [#executable_target_embedded_elf_arm_64_]>
module attributes {hal.device.targets = [#device_target_local]} {
  util.func public @add(%arg0: tensor<3x2xf32>, %arg1: tensor<1x1xf32>) -> tensor<3x2xf32> {
    %0 = tensor.empty() : tensor<3x2xf32>
    %1 = linalg.generic {indexing_maps = [#map, #map1, #map], iterator_types = ["parallel", "parallel"]} ins(%arg0, %arg1 : tensor<3x2xf32>, tensor<1x1xf32>) outs(%0 : tensor<3x2xf32>) {
    ^bb0(%in: f32, %in_0: f32, %out: f32):
      %2 = arith.addf %in, %in_0 : f32
      linalg.yield %2 : f32
    } -> tensor<3x2xf32>
    util.return %1 : tensor<3x2xf32>
  }
}


// -----// IR Dump After mlir::iree_compiler::IREE::ABI::ConvertStreamableOpsPass (iree-abi-convert-streamable-ops) //----- //
#executable_target_embedded_elf_arm_64_ = #hal.executable.target<"llvm-cpu", "embedded-elf-arm_64", {cpu = "", cpu_features = "+reserve-x18", data_layout = "e-m:e-i8:8:32-i16:16:32-i64:64-i128:128-n32:64-S128-Fn32", native_vector_size = 16 : i64, target_triple = "aarch64-unknown-unknown-eabi-elf"}>
#map = affine_map<(d0, d1) -> (d0, d1)>
#map1 = affine_map<(d0, d1) -> (0, 0)>
#device_target_local = #hal.device.target<"local", [#executable_target_embedded_elf_arm_64_]>
module attributes {hal.device.targets = [#device_target_local]} {
  util.func public @add(%arg0: tensor<3x2xf32>, %arg1: tensor<1x1xf32>) -> tensor<3x2xf32> {
    %0 = tensor.empty() : tensor<3x2xf32>
    %1 = linalg.generic {indexing_maps = [#map, #map1, #map], iterator_types = ["parallel", "parallel"]} ins(%arg0, %arg1 : tensor<3x2xf32>, tensor<1x1xf32>) outs(%0 : tensor<3x2xf32>) {
    ^bb0(%in: f32, %in_0: f32, %out: f32):
      %2 = arith.addf %in, %in_0 : f32
      linalg.yield %2 : f32
    } -> tensor<3x2xf32>
    util.return %1 : tensor<3x2xf32>
  }
}


// -----// IR Dump After mlir::iree_compiler::IREE::ABI::WrapEntryPointsPass (iree-abi-wrap-entry-points) //----- //
#executable_target_embedded_elf_arm_64_ = #hal.executable.target<"llvm-cpu", "embedded-elf-arm_64", {cpu = "", cpu_features = "+reserve-x18", data_layout = "e-m:e-i8:8:32-i16:16:32-i64:64-i128:128-n32:64-S128-Fn32", native_vector_size = 16 : i64, target_triple = "aarch64-unknown-unknown-eabi-elf"}>
#map = affine_map<(d0, d1) -> (d0, d1)>
#map1 = affine_map<(d0, d1) -> (0, 0)>
#device_target_local = #hal.device.target<"local", [#executable_target_embedded_elf_arm_64_]>
module attributes {hal.device.targets = [#device_target_local]} {
  util.func public @add(%arg0: !hal.buffer_view, %arg1: !hal.buffer_view) -> !hal.buffer_view attributes {iree.abi.stub, iree.reflection = {iree.abi.declaration = "sync func @add(%input0: tensor<3x2xf32>, %input1: tensor<1x1xf32>) -> (%output0: tensor<3x2xf32>)"}} {
    %0 = hal.tensor.import %arg0 "input0" : !hal.buffer_view -> tensor<3x2xf32>
    %1 = hal.tensor.import %arg1 "input1" : !hal.buffer_view -> tensor<1x1xf32>
    %2 = util.call @_add(%0, %1) : (tensor<3x2xf32>, tensor<1x1xf32>) -> tensor<3x2xf32>
    %3 = hal.tensor.export %2 "output0" : tensor<3x2xf32> -> !hal.buffer_view
    util.return %3 : !hal.buffer_view
  }
  util.func private @_add(%arg0: tensor<3x2xf32>, %arg1: tensor<1x1xf32>) -> tensor<3x2xf32> {
    %0 = tensor.empty() : tensor<3x2xf32>
    %1 = linalg.generic {indexing_maps = [#map, #map1, #map], iterator_types = ["parallel", "parallel"]} ins(%arg0, %arg1 : tensor<3x2xf32>, tensor<1x1xf32>) outs(%0 : tensor<3x2xf32>) {
    ^bb0(%in: f32, %in_0: f32, %out: f32):
      %2 = arith.addf %in, %in_0 : f32
      linalg.yield %2 : f32
    } -> tensor<3x2xf32>
    util.return %1 : tensor<3x2xf32>
  }
}


// -----// IR Dump After Canonicalizer (canonicalize) //----- //
util.func private @_add(%arg0: tensor<3x2xf32>, %arg1: tensor<1x1xf32>) -> tensor<3x2xf32> {
  %0 = tensor.empty() : tensor<3x2xf32>
  %1 = linalg.generic {indexing_maps = [affine_map<(d0, d1) -> (d0, d1)>, affine_map<(d0, d1) -> (0, 0)>, affine_map<(d0, d1) -> (d0, d1)>], iterator_types = ["parallel", "parallel"]} ins(%arg0, %arg1 : tensor<3x2xf32>, tensor<1x1xf32>) outs(%0 : tensor<3x2xf32>) {
  ^bb0(%in: f32, %in_0: f32, %out: f32):
    %2 = arith.addf %in, %in_0 : f32
    linalg.yield %2 : f32
  } -> tensor<3x2xf32>
  util.return %1 : tensor<3x2xf32>
}

// -----// IR Dump After Canonicalizer (canonicalize) //----- //
util.func public @add(%arg0: !hal.buffer_view, %arg1: !hal.buffer_view) -> !hal.buffer_view attributes {iree.abi.stub, iree.reflection = {iree.abi.declaration = "sync func @add(%input0: tensor<3x2xf32>, %input1: tensor<1x1xf32>) -> (%output0: tensor<3x2xf32>)"}} {
  %0 = hal.tensor.import %arg0 "input0" : !hal.buffer_view -> tensor<3x2xf32>
  %1 = hal.tensor.import %arg1 "input1" : !hal.buffer_view -> tensor<1x1xf32>
  %2 = util.call @_add(%0, %1) : (tensor<3x2xf32>, tensor<1x1xf32>) -> tensor<3x2xf32>
  %3 = hal.tensor.export %2 "output0" : tensor<3x2xf32> -> !hal.buffer_view
  util.return %3 : !hal.buffer_view
}

// -----// IR Dump After Canonicalizer (canonicalize) //----- //
util.func public @add(%arg0: !hal.buffer_view, %arg1: !hal.buffer_view) -> !hal.buffer_view attributes {iree.abi.stub, iree.reflection = {iree.abi.declaration = "sync func @add(%input0: tensor<3x2xf32>, %input1: tensor<1x1xf32>) -> (%output0: tensor<3x2xf32>)"}} {
  %0 = hal.tensor.import %arg0 "input0" : !hal.buffer_view -> tensor<3x2xf32>
  %1 = hal.tensor.import %arg1 "input1" : !hal.buffer_view -> tensor<1x1xf32>
  %2 = tensor.empty() : tensor<3x2xf32>
  %3 = linalg.generic {indexing_maps = [affine_map<(d0, d1) -> (d0, d1)>, affine_map<(d0, d1) -> (0, 0)>, affine_map<(d0, d1) -> (d0, d1)>], iterator_types = ["parallel", "parallel"]} ins(%0, %1 : tensor<3x2xf32>, tensor<1x1xf32>) outs(%2 : tensor<3x2xf32>) {
  ^bb0(%in: f32, %in_0: f32, %out: f32):
    %5 = arith.addf %in, %in_0 : f32
    linalg.yield %5 : f32
  } -> tensor<3x2xf32>
  %4 = hal.tensor.export %3 "output0" : tensor<3x2xf32> -> !hal.buffer_view
  util.return %4 : !hal.buffer_view
}

// -----// IR Dump After Inliner (inline) //----- //
#executable_target_embedded_elf_arm_64_ = #hal.executable.target<"llvm-cpu", "embedded-elf-arm_64", {cpu = "", cpu_features = "+reserve-x18", data_layout = "e-m:e-i8:8:32-i16:16:32-i64:64-i128:128-n32:64-S128-Fn32", native_vector_size = 16 : i64, target_triple = "aarch64-unknown-unknown-eabi-elf"}>
#map = affine_map<(d0, d1) -> (d0, d1)>
#map1 = affine_map<(d0, d1) -> (0, 0)>
#device_target_local = #hal.device.target<"local", [#executable_target_embedded_elf_arm_64_]>
module attributes {hal.device.targets = [#device_target_local]} {
  util.func public @add(%arg0: !hal.buffer_view, %arg1: !hal.buffer_view) -> !hal.buffer_view attributes {iree.abi.stub, iree.reflection = {iree.abi.declaration = "sync func @add(%input0: tensor<3x2xf32>, %input1: tensor<1x1xf32>) -> (%output0: tensor<3x2xf32>)"}} {
    %0 = hal.tensor.import %arg0 "input0" : !hal.buffer_view -> tensor<3x2xf32>
    %1 = hal.tensor.import %arg1 "input1" : !hal.buffer_view -> tensor<1x1xf32>
    %2 = tensor.empty() : tensor<3x2xf32>
    %3 = linalg.generic {indexing_maps = [#map, #map1, #map], iterator_types = ["parallel", "parallel"]} ins(%0, %1 : tensor<3x2xf32>, tensor<1x1xf32>) outs(%2 : tensor<3x2xf32>) {
    ^bb0(%in: f32, %in_0: f32, %out: f32):
      %5 = arith.addf %in, %in_0 : f32
      linalg.yield %5 : f32
    } -> tensor<3x2xf32>
    %4 = hal.tensor.export %3 "output0" : tensor<3x2xf32> -> !hal.buffer_view
    util.return %4 : !hal.buffer_view
  }
}


// -----// IR Dump After Canonicalizer (canonicalize) //----- //
util.func public @add(%arg0: !hal.buffer_view, %arg1: !hal.buffer_view) -> !hal.buffer_view attributes {iree.abi.stub, iree.reflection = {iree.abi.declaration = "sync func @add(%input0: tensor<3x2xf32>, %input1: tensor<1x1xf32>) -> (%output0: tensor<3x2xf32>)"}} {
  %0 = hal.tensor.import %arg0 "input0" : !hal.buffer_view -> tensor<3x2xf32>
  %1 = hal.tensor.import %arg1 "input1" : !hal.buffer_view -> tensor<1x1xf32>
  %2 = tensor.empty() : tensor<3x2xf32>
  %3 = linalg.generic {indexing_maps = [affine_map<(d0, d1) -> (d0, d1)>, affine_map<(d0, d1) -> (0, 0)>, affine_map<(d0, d1) -> (d0, d1)>], iterator_types = ["parallel", "parallel"]} ins(%0, %1 : tensor<3x2xf32>, tensor<1x1xf32>) outs(%2 : tensor<3x2xf32>) {
  ^bb0(%in: f32, %in_0: f32, %out: f32):
    %5 = arith.addf %in, %in_0 : f32
    linalg.yield %5 : f32
  } -> tensor<3x2xf32>
  %4 = hal.tensor.export %3 "output0" : tensor<3x2xf32> -> !hal.buffer_view
  util.return %4 : !hal.buffer_view
}

// -----// IR Dump After CSE (cse) //----- //
util.func public @add(%arg0: !hal.buffer_view, %arg1: !hal.buffer_view) -> !hal.buffer_view attributes {iree.abi.stub, iree.reflection = {iree.abi.declaration = "sync func @add(%input0: tensor<3x2xf32>, %input1: tensor<1x1xf32>) -> (%output0: tensor<3x2xf32>)"}} {
  %0 = hal.tensor.import %arg0 "input0" : !hal.buffer_view -> tensor<3x2xf32>
  %1 = hal.tensor.import %arg1 "input1" : !hal.buffer_view -> tensor<1x1xf32>
  %2 = tensor.empty() : tensor<3x2xf32>
  %3 = linalg.generic {indexing_maps = [affine_map<(d0, d1) -> (d0, d1)>, affine_map<(d0, d1) -> (0, 0)>, affine_map<(d0, d1) -> (d0, d1)>], iterator_types = ["parallel", "parallel"]} ins(%0, %1 : tensor<3x2xf32>, tensor<1x1xf32>) outs(%2 : tensor<3x2xf32>) {
  ^bb0(%in: f32, %in_0: f32, %out: f32):
    %5 = arith.addf %in, %in_0 : f32
    linalg.yield %5 : f32
  } -> tensor<3x2xf32>
  %4 = hal.tensor.export %3 "output0" : tensor<3x2xf32> -> !hal.buffer_view
  util.return %4 : !hal.buffer_view
}

// -----// IR Dump After SymbolDCE (symbol-dce) //----- //
#executable_target_embedded_elf_arm_64_ = #hal.executable.target<"llvm-cpu", "embedded-elf-arm_64", {cpu = "", cpu_features = "+reserve-x18", data_layout = "e-m:e-i8:8:32-i16:16:32-i64:64-i128:128-n32:64-S128-Fn32", native_vector_size = 16 : i64, target_triple = "aarch64-unknown-unknown-eabi-elf"}>
#map = affine_map<(d0, d1) -> (d0, d1)>
#map1 = affine_map<(d0, d1) -> (0, 0)>
#device_target_local = #hal.device.target<"local", [#executable_target_embedded_elf_arm_64_]>
module attributes {hal.device.targets = [#device_target_local]} {
  util.func public @add(%arg0: !hal.buffer_view, %arg1: !hal.buffer_view) -> !hal.buffer_view attributes {iree.abi.stub, iree.reflection = {iree.abi.declaration = "sync func @add(%input0: tensor<3x2xf32>, %input1: tensor<1x1xf32>) -> (%output0: tensor<3x2xf32>)"}} {
    %0 = hal.tensor.import %arg0 "input0" : !hal.buffer_view -> tensor<3x2xf32>
    %1 = hal.tensor.import %arg1 "input1" : !hal.buffer_view -> tensor<1x1xf32>
    %2 = tensor.empty() : tensor<3x2xf32>
    %3 = linalg.generic {indexing_maps = [#map, #map1, #map], iterator_types = ["parallel", "parallel"]} ins(%0, %1 : tensor<3x2xf32>, tensor<1x1xf32>) outs(%2 : tensor<3x2xf32>) {
    ^bb0(%in: f32, %in_0: f32, %out: f32):
      %5 = arith.addf %in, %in_0 : f32
      linalg.yield %5 : f32
    } -> tensor<3x2xf32>
    %4 = hal.tensor.export %3 "output0" : tensor<3x2xf32> -> !hal.buffer_view
    util.return %4 : !hal.buffer_view
  }
}


// -----// IR Dump After RemoveZeroExtentTensors (iree-global-opt-remove-zero-extent-tensors) //----- //
util.func public @add(%arg0: !hal.buffer_view, %arg1: !hal.buffer_view) -> !hal.buffer_view attributes {iree.abi.stub, iree.reflection = {iree.abi.declaration = "sync func @add(%input0: tensor<3x2xf32>, %input1: tensor<1x1xf32>) -> (%output0: tensor<3x2xf32>)"}} {
  %0 = hal.tensor.import %arg0 "input0" : !hal.buffer_view -> tensor<3x2xf32>
  %1 = hal.tensor.import %arg1 "input1" : !hal.buffer_view -> tensor<1x1xf32>
  %2 = tensor.empty() : tensor<3x2xf32>
  %3 = linalg.generic {indexing_maps = [affine_map<(d0, d1) -> (d0, d1)>, affine_map<(d0, d1) -> (0, 0)>, affine_map<(d0, d1) -> (d0, d1)>], iterator_types = ["parallel", "parallel"]} ins(%0, %1 : tensor<3x2xf32>, tensor<1x1xf32>) outs(%2 : tensor<3x2xf32>) {
  ^bb0(%in: f32, %in_0: f32, %out: f32):
    %5 = arith.addf %in, %in_0 : f32
    linalg.yield %5 : f32
  } -> tensor<3x2xf32>
  %4 = hal.tensor.export %3 "output0" : tensor<3x2xf32> -> !hal.buffer_view
  util.return %4 : !hal.buffer_view
}

// -----// IR Dump After DetachElementwiseFromNamedOps (iree-global-opt-detach-elementwise-from-named-ops) //----- //
util.func public @add(%arg0: !hal.buffer_view, %arg1: !hal.buffer_view) -> !hal.buffer_view attributes {iree.abi.stub, iree.reflection = {iree.abi.declaration = "sync func @add(%input0: tensor<3x2xf32>, %input1: tensor<1x1xf32>) -> (%output0: tensor<3x2xf32>)"}} {
  %0 = hal.tensor.import %arg0 "input0" : !hal.buffer_view -> tensor<3x2xf32>
  %1 = hal.tensor.import %arg1 "input1" : !hal.buffer_view -> tensor<1x1xf32>
  %2 = tensor.empty() : tensor<3x2xf32>
  %3 = linalg.generic {indexing_maps = [affine_map<(d0, d1) -> (d0, d1)>, affine_map<(d0, d1) -> (0, 0)>, affine_map<(d0, d1) -> (d0, d1)>], iterator_types = ["parallel", "parallel"]} ins(%0, %1 : tensor<3x2xf32>, tensor<1x1xf32>) outs(%2 : tensor<3x2xf32>) {
  ^bb0(%in: f32, %in_0: f32, %out: f32):
    %5 = arith.addf %in, %in_0 : f32
    linalg.yield %5 : f32
  } -> tensor<3x2xf32>
  %4 = hal.tensor.export %3 "output0" : tensor<3x2xf32> -> !hal.buffer_view
  util.return %4 : !hal.buffer_view
}

// -----// IR Dump After LinalgNamedOpConversionPass (linalg-named-op-conversion) //----- //
util.func public @add(%arg0: !hal.buffer_view, %arg1: !hal.buffer_view) -> !hal.buffer_view attributes {iree.abi.stub, iree.reflection = {iree.abi.declaration = "sync func @add(%input0: tensor<3x2xf32>, %input1: tensor<1x1xf32>) -> (%output0: tensor<3x2xf32>)"}} {
  %0 = hal.tensor.import %arg0 "input0" : !hal.buffer_view -> tensor<3x2xf32>
  %1 = hal.tensor.import %arg1 "input1" : !hal.buffer_view -> tensor<1x1xf32>
  %2 = tensor.empty() : tensor<3x2xf32>
  %3 = linalg.generic {indexing_maps = [affine_map<(d0, d1) -> (d0, d1)>, affine_map<(d0, d1) -> (0, 0)>, affine_map<(d0, d1) -> (d0, d1)>], iterator_types = ["parallel", "parallel"]} ins(%0, %1 : tensor<3x2xf32>, tensor<1x1xf32>) outs(%2 : tensor<3x2xf32>) {
  ^bb0(%in: f32, %in_0: f32, %out: f32):
    %5 = arith.addf %in, %in_0 : f32
    linalg.yield %5 : f32
  } -> tensor<3x2xf32>
  %4 = hal.tensor.export %3 "output0" : tensor<3x2xf32> -> !hal.buffer_view
  util.return %4 : !hal.buffer_view
}

// -----// IR Dump After Convert1X1FilterConv2DToMatmul (iree-global-opt-convert-1x1-filter-conv2d-to-matmul) //----- //
util.func public @add(%arg0: !hal.buffer_view, %arg1: !hal.buffer_view) -> !hal.buffer_view attributes {iree.abi.stub, iree.reflection = {iree.abi.declaration = "sync func @add(%input0: tensor<3x2xf32>, %input1: tensor<1x1xf32>) -> (%output0: tensor<3x2xf32>)"}} {
  %0 = hal.tensor.import %arg0 "input0" : !hal.buffer_view -> tensor<3x2xf32>
  %1 = hal.tensor.import %arg1 "input1" : !hal.buffer_view -> tensor<1x1xf32>
  %2 = tensor.empty() : tensor<3x2xf32>
  %3 = linalg.generic {indexing_maps = [affine_map<(d0, d1) -> (d0, d1)>, affine_map<(d0, d1) -> (0, 0)>, affine_map<(d0, d1) -> (d0, d1)>], iterator_types = ["parallel", "parallel"]} ins(%0, %1 : tensor<3x2xf32>, tensor<1x1xf32>) outs(%2 : tensor<3x2xf32>) {
  ^bb0(%in: f32, %in_0: f32, %out: f32):
    %5 = arith.addf %in, %in_0 : f32
    linalg.yield %5 : f32
  } -> tensor<3x2xf32>
  %4 = hal.tensor.export %3 "output0" : tensor<3x2xf32> -> !hal.buffer_view
  util.return %4 : !hal.buffer_view
}

// -----// IR Dump After EraseUnusedLinalgOperands (iree-global-opt-erase-unused-linalg-operands) //----- //
#executable_target_embedded_elf_arm_64_ = #hal.executable.target<"llvm-cpu", "embedded-elf-arm_64", {cpu = "", cpu_features = "+reserve-x18", data_layout = "e-m:e-i8:8:32-i16:16:32-i64:64-i128:128-n32:64-S128-Fn32", native_vector_size = 16 : i64, target_triple = "aarch64-unknown-unknown-eabi-elf"}>
#map = affine_map<(d0, d1) -> (d0, d1)>
#map1 = affine_map<(d0, d1) -> (0, 0)>
#device_target_local = #hal.device.target<"local", [#executable_target_embedded_elf_arm_64_]>
module attributes {hal.device.targets = [#device_target_local]} {
  util.func public @add(%arg0: !hal.buffer_view, %arg1: !hal.buffer_view) -> !hal.buffer_view attributes {iree.abi.stub, iree.reflection = {iree.abi.declaration = "sync func @add(%input0: tensor<3x2xf32>, %input1: tensor<1x1xf32>) -> (%output0: tensor<3x2xf32>)"}} {
    %0 = hal.tensor.import %arg0 "input0" : !hal.buffer_view -> tensor<3x2xf32>
    %1 = hal.tensor.import %arg1 "input1" : !hal.buffer_view -> tensor<1x1xf32>
    %2 = tensor.empty() : tensor<3x2xf32>
    %3 = linalg.generic {indexing_maps = [#map, #map1, #map], iterator_types = ["parallel", "parallel"]} ins(%0, %1 : tensor<3x2xf32>, tensor<1x1xf32>) outs(%2 : tensor<3x2xf32>) {
    ^bb0(%in: f32, %in_0: f32, %out: f32):
      %5 = arith.addf %in, %in_0 : f32
      linalg.yield %5 : f32
    } -> tensor<3x2xf32>
    %4 = hal.tensor.export %3 "output0" : tensor<3x2xf32> -> !hal.buffer_view
    util.return %4 : !hal.buffer_view
  }
}


// -----// IR Dump After ExpandTensorShapes (iree-global-opt-expand-tensor-shapes) //----- //
#executable_target_embedded_elf_arm_64_ = #hal.executable.target<"llvm-cpu", "embedded-elf-arm_64", {cpu = "", cpu_features = "+reserve-x18", data_layout = "e-m:e-i8:8:32-i16:16:32-i64:64-i128:128-n32:64-S128-Fn32", native_vector_size = 16 : i64, target_triple = "aarch64-unknown-unknown-eabi-elf"}>
#map = affine_map<(d0, d1) -> (d0, d1)>
#map1 = affine_map<(d0, d1) -> (0, 0)>
#device_target_local = #hal.device.target<"local", [#executable_target_embedded_elf_arm_64_]>
module attributes {hal.device.targets = [#device_target_local]} {
  util.func public @add(%arg0: !hal.buffer_view, %arg1: !hal.buffer_view) -> !hal.buffer_view attributes {iree.abi.stub, iree.reflection = {iree.abi.declaration = "sync func @add(%input0: tensor<3x2xf32>, %input1: tensor<1x1xf32>) -> (%output0: tensor<3x2xf32>)"}} {
    %0 = hal.tensor.import %arg0 "input0" : !hal.buffer_view -> tensor<3x2xf32>
    %1 = hal.tensor.import %arg1 "input1" : !hal.buffer_view -> tensor<1x1xf32>
    %2 = tensor.empty() : tensor<3x2xf32>
    %3 = linalg.generic {indexing_maps = [#map, #map1, #map], iterator_types = ["parallel", "parallel"]} ins(%0, %1 : tensor<3x2xf32>, tensor<1x1xf32>) outs(%2 : tensor<3x2xf32>) {
    ^bb0(%in: f32, %in_0: f32, %out: f32):
      %5 = arith.addf %in, %in_0 : f32
      linalg.yield %5 : f32
    } -> tensor<3x2xf32>
    %4 = hal.tensor.export %3 "output0" : tensor<3x2xf32> -> !hal.buffer_view
    util.return %4 : !hal.buffer_view
  }
}


// -----// IR Dump After ConvertElementwiseToLinalgPass (convert-elementwise-to-linalg) //----- //
util.func public @add(%arg0: !hal.buffer_view, %arg1: !hal.buffer_view) -> !hal.buffer_view attributes {iree.abi.stub, iree.reflection = {iree.abi.declaration = "sync func @add(%input0: tensor<3x2xf32>, %input1: tensor<1x1xf32>) -> (%output0: tensor<3x2xf32>)"}} {
  %0 = hal.tensor.import %arg0 "input0" : !hal.buffer_view -> tensor<3x2xf32>
  %1 = hal.tensor.import %arg1 "input1" : !hal.buffer_view -> tensor<1x1xf32>
  %2 = tensor.empty() : tensor<3x2xf32>
  %3 = linalg.generic {indexing_maps = [affine_map<(d0, d1) -> (d0, d1)>, affine_map<(d0, d1) -> (0, 0)>, affine_map<(d0, d1) -> (d0, d1)>], iterator_types = ["parallel", "parallel"]} ins(%0, %1 : tensor<3x2xf32>, tensor<1x1xf32>) outs(%2 : tensor<3x2xf32>) {
  ^bb0(%in: f32, %in_0: f32, %out: f32):
    %5 = arith.addf %in, %in_0 : f32
    linalg.yield %5 : f32
  } -> tensor<3x2xf32>
  %4 = hal.tensor.export %3 "output0" : tensor<3x2xf32> -> !hal.buffer_view
  util.return %4 : !hal.buffer_view
}

// -----// IR Dump After RaiseSpecialOps (iree-global-opt-raise-special-ops) //----- //
util.func public @add(%arg0: !hal.buffer_view, %arg1: !hal.buffer_view) -> !hal.buffer_view attributes {iree.abi.stub, iree.reflection = {iree.abi.declaration = "sync func @add(%input0: tensor<3x2xf32>, %input1: tensor<1x1xf32>) -> (%output0: tensor<3x2xf32>)"}} {
  %0 = hal.tensor.import %arg0 "input0" : !hal.buffer_view -> tensor<3x2xf32>
  %1 = hal.tensor.import %arg1 "input1" : !hal.buffer_view -> tensor<1x1xf32>
  %2 = tensor.empty() : tensor<3x2xf32>
  %3 = linalg.generic {indexing_maps = [affine_map<(d0, d1) -> (d0, d1)>, affine_map<(d0, d1) -> (0, 0)>, affine_map<(d0, d1) -> (d0, d1)>], iterator_types = ["parallel", "parallel"]} ins(%0, %1 : tensor<3x2xf32>, tensor<1x1xf32>) outs(%2 : tensor<3x2xf32>) {
  ^bb0(%in: f32, %in_0: f32, %out: f32):
    %5 = arith.addf %in, %in_0 : f32
    linalg.yield %5 : f32
  } -> tensor<3x2xf32>
  %4 = hal.tensor.export %3 "output0" : tensor<3x2xf32> -> !hal.buffer_view
  util.return %4 : !hal.buffer_view
}

// -----// IR Dump After DecomposeConcat (iree-global-opt-decompose-concat) //----- //
util.func public @add(%arg0: !hal.buffer_view, %arg1: !hal.buffer_view) -> !hal.buffer_view attributes {iree.abi.stub, iree.reflection = {iree.abi.declaration = "sync func @add(%input0: tensor<3x2xf32>, %input1: tensor<1x1xf32>) -> (%output0: tensor<3x2xf32>)"}} {
  %0 = hal.tensor.import %arg0 "input0" : !hal.buffer_view -> tensor<3x2xf32>
  %1 = hal.tensor.import %arg1 "input1" : !hal.buffer_view -> tensor<1x1xf32>
  %2 = tensor.empty() : tensor<3x2xf32>
  %3 = linalg.generic {indexing_maps = [affine_map<(d0, d1) -> (d0, d1)>, affine_map<(d0, d1) -> (0, 0)>, affine_map<(d0, d1) -> (d0, d1)>], iterator_types = ["parallel", "parallel"]} ins(%0, %1 : tensor<3x2xf32>, tensor<1x1xf32>) outs(%2 : tensor<3x2xf32>) {
  ^bb0(%in: f32, %in_0: f32, %out: f32):
    %5 = arith.addf %in, %in_0 : f32
    linalg.yield %5 : f32
  } -> tensor<3x2xf32>
  %4 = hal.tensor.export %3 "output0" : tensor<3x2xf32> -> !hal.buffer_view
  util.return %4 : !hal.buffer_view
}

// -----// IR Dump After GeneralizeLinalgNamedOps (iree-global-opt-generalize-linalg-named-ops) //----- //
util.func public @add(%arg0: !hal.buffer_view, %arg1: !hal.buffer_view) -> !hal.buffer_view attributes {iree.abi.stub, iree.reflection = {iree.abi.declaration = "sync func @add(%input0: tensor<3x2xf32>, %input1: tensor<1x1xf32>) -> (%output0: tensor<3x2xf32>)"}} {
  %0 = hal.tensor.import %arg0 "input0" : !hal.buffer_view -> tensor<3x2xf32>
  %1 = hal.tensor.import %arg1 "input1" : !hal.buffer_view -> tensor<1x1xf32>
  %2 = tensor.empty() : tensor<3x2xf32>
  %3 = linalg.generic {indexing_maps = [affine_map<(d0, d1) -> (d0, d1)>, affine_map<(d0, d1) -> (0, 0)>, affine_map<(d0, d1) -> (d0, d1)>], iterator_types = ["parallel", "parallel"]} ins(%0, %1 : tensor<3x2xf32>, tensor<1x1xf32>) outs(%2 : tensor<3x2xf32>) {
  ^bb0(%in: f32, %in_0: f32, %out: f32):
    %5 = arith.addf %in, %in_0 : f32
    linalg.yield %5 : f32
  } -> tensor<3x2xf32>
  %4 = hal.tensor.export %3 "output0" : tensor<3x2xf32> -> !hal.buffer_view
  util.return %4 : !hal.buffer_view
}

// -----// IR Dump After FoldUnitExtentDimsPass (iree-flow-fold-unit-extent-dims) //----- //
util.func public @add(%arg0: !hal.buffer_view, %arg1: !hal.buffer_view) -> !hal.buffer_view attributes {iree.abi.stub, iree.reflection = {iree.abi.declaration = "sync func @add(%input0: tensor<3x2xf32>, %input1: tensor<1x1xf32>) -> (%output0: tensor<3x2xf32>)"}} {
  %0 = hal.tensor.import %arg0 "input0" : !hal.buffer_view -> tensor<3x2xf32>
  %1 = hal.tensor.import %arg1 "input1" : !hal.buffer_view -> tensor<1x1xf32>
  %2 = tensor.empty() : tensor<3x2xf32>
  %collapsed = tensor.collapse_shape %1 [] : tensor<1x1xf32> into tensor<f32>
  %3 = linalg.generic {indexing_maps = [affine_map<(d0, d1) -> (d0, d1)>, affine_map<(d0, d1) -> ()>, affine_map<(d0, d1) -> (d0, d1)>], iterator_types = ["parallel", "parallel"]} ins(%0, %collapsed : tensor<3x2xf32>, tensor<f32>) outs(%2 : tensor<3x2xf32>) {
  ^bb0(%in: f32, %in_0: f32, %out: f32):
    %5 = arith.addf %in, %in_0 : f32
    linalg.yield %5 : f32
  } -> tensor<3x2xf32>
  %4 = hal.tensor.export %3 "output0" : tensor<3x2xf32> -> !hal.buffer_view
  util.return %4 : !hal.buffer_view
}

// -----// IR Dump After DemoteContractionInputsToBF16 (iree-global-opt-demote-contraction-inputs-to-bf16) //----- //
util.func public @add(%arg0: !hal.buffer_view, %arg1: !hal.buffer_view) -> !hal.buffer_view attributes {iree.abi.stub, iree.reflection = {iree.abi.declaration = "sync func @add(%input0: tensor<3x2xf32>, %input1: tensor<1x1xf32>) -> (%output0: tensor<3x2xf32>)"}} {
  %0 = hal.tensor.import %arg0 "input0" : !hal.buffer_view -> tensor<3x2xf32>
  %1 = hal.tensor.import %arg1 "input1" : !hal.buffer_view -> tensor<1x1xf32>
  %2 = tensor.empty() : tensor<3x2xf32>
  %collapsed = tensor.collapse_shape %1 [] : tensor<1x1xf32> into tensor<f32>
  %3 = linalg.generic {indexing_maps = [affine_map<(d0, d1) -> (d0, d1)>, affine_map<(d0, d1) -> ()>, affine_map<(d0, d1) -> (d0, d1)>], iterator_types = ["parallel", "parallel"]} ins(%0, %collapsed : tensor<3x2xf32>, tensor<f32>) outs(%2 : tensor<3x2xf32>) {
  ^bb0(%in: f32, %in_0: f32, %out: f32):
    %5 = arith.addf %in, %in_0 : f32
    linalg.yield %5 : f32
  } -> tensor<3x2xf32>
  %4 = hal.tensor.export %3 "output0" : tensor<3x2xf32> -> !hal.buffer_view
  util.return %4 : !hal.buffer_view
}

// -----// IR Dump After FuseDequantizationMatmul (iree-global-opt-fuse-dequantization-matmul) //----- //
util.func public @add(%arg0: !hal.buffer_view, %arg1: !hal.buffer_view) -> !hal.buffer_view attributes {iree.abi.stub, iree.reflection = {iree.abi.declaration = "sync func @add(%input0: tensor<3x2xf32>, %input1: tensor<1x1xf32>) -> (%output0: tensor<3x2xf32>)"}} {
  %0 = hal.tensor.import %arg0 "input0" : !hal.buffer_view -> tensor<3x2xf32>
  %1 = hal.tensor.import %arg1 "input1" : !hal.buffer_view -> tensor<1x1xf32>
  %2 = tensor.empty() : tensor<3x2xf32>
  %collapsed = tensor.collapse_shape %1 [] : tensor<1x1xf32> into tensor<f32>
  %3 = linalg.generic {indexing_maps = [affine_map<(d0, d1) -> (d0, d1)>, affine_map<(d0, d1) -> ()>, affine_map<(d0, d1) -> (d0, d1)>], iterator_types = ["parallel", "parallel"]} ins(%0, %collapsed : tensor<3x2xf32>, tensor<f32>) outs(%2 : tensor<3x2xf32>) {
  ^bb0(%in: f32, %in_0: f32, %out: f32):
    %5 = arith.addf %in, %in_0 : f32
    linalg.yield %5 : f32
  } -> tensor<3x2xf32>
  %4 = hal.tensor.export %3 "output0" : tensor<3x2xf32> -> !hal.buffer_view
  util.return %4 : !hal.buffer_view
}

// -----// IR Dump After Canonicalizer (canonicalize) //----- //
util.func public @add(%arg0: !hal.buffer_view, %arg1: !hal.buffer_view) -> !hal.buffer_view attributes {iree.abi.stub, iree.reflection = {iree.abi.declaration = "sync func @add(%input0: tensor<3x2xf32>, %input1: tensor<1x1xf32>) -> (%output0: tensor<3x2xf32>)"}} {
  %0 = hal.tensor.import %arg0 "input0" : !hal.buffer_view -> tensor<3x2xf32>
  %1 = hal.tensor.import %arg1 "input1" : !hal.buffer_view -> tensor<1x1xf32>
  %2 = tensor.empty() : tensor<3x2xf32>
  %collapsed = tensor.collapse_shape %1 [] : tensor<1x1xf32> into tensor<f32>
  %3 = linalg.generic {indexing_maps = [affine_map<(d0, d1) -> (d0, d1)>, affine_map<(d0, d1) -> ()>, affine_map<(d0, d1) -> (d0, d1)>], iterator_types = ["parallel", "parallel"]} ins(%0, %collapsed : tensor<3x2xf32>, tensor<f32>) outs(%2 : tensor<3x2xf32>) {
  ^bb0(%in: f32, %in_0: f32, %out: f32):
    %5 = arith.addf %in, %in_0 : f32
    linalg.yield %5 : f32
  } -> tensor<3x2xf32>
  %4 = hal.tensor.export %3 "output0" : tensor<3x2xf32> -> !hal.buffer_view
  util.return %4 : !hal.buffer_view
}

// -----// IR Dump After CSE (cse) //----- //
util.func public @add(%arg0: !hal.buffer_view, %arg1: !hal.buffer_view) -> !hal.buffer_view attributes {iree.abi.stub, iree.reflection = {iree.abi.declaration = "sync func @add(%input0: tensor<3x2xf32>, %input1: tensor<1x1xf32>) -> (%output0: tensor<3x2xf32>)"}} {
  %0 = hal.tensor.import %arg0 "input0" : !hal.buffer_view -> tensor<3x2xf32>
  %1 = hal.tensor.import %arg1 "input1" : !hal.buffer_view -> tensor<1x1xf32>
  %2 = tensor.empty() : tensor<3x2xf32>
  %collapsed = tensor.collapse_shape %1 [] : tensor<1x1xf32> into tensor<f32>
  %3 = linalg.generic {indexing_maps = [affine_map<(d0, d1) -> (d0, d1)>, affine_map<(d0, d1) -> ()>, affine_map<(d0, d1) -> (d0, d1)>], iterator_types = ["parallel", "parallel"]} ins(%0, %collapsed : tensor<3x2xf32>, tensor<f32>) outs(%2 : tensor<3x2xf32>) {
  ^bb0(%in: f32, %in_0: f32, %out: f32):
    %5 = arith.addf %in, %in_0 : f32
    linalg.yield %5 : f32
  } -> tensor<3x2xf32>
  %4 = hal.tensor.export %3 "output0" : tensor<3x2xf32> -> !hal.buffer_view
  util.return %4 : !hal.buffer_view
}

// -----// IR Dump After Canonicalizer (canonicalize) //----- //
util.func public @add(%arg0: !hal.buffer_view, %arg1: !hal.buffer_view) -> !hal.buffer_view attributes {iree.abi.stub, iree.reflection = {iree.abi.declaration = "sync func @add(%input0: tensor<3x2xf32>, %input1: tensor<1x1xf32>) -> (%output0: tensor<3x2xf32>)"}} {
  %0 = hal.tensor.import %arg0 "input0" : !hal.buffer_view -> tensor<3x2xf32>
  %1 = hal.tensor.import %arg1 "input1" : !hal.buffer_view -> tensor<1x1xf32>
  %2 = tensor.empty() : tensor<3x2xf32>
  %collapsed = tensor.collapse_shape %1 [] : tensor<1x1xf32> into tensor<f32>
  %3 = linalg.generic {indexing_maps = [affine_map<(d0, d1) -> (d0, d1)>, affine_map<(d0, d1) -> ()>, affine_map<(d0, d1) -> (d0, d1)>], iterator_types = ["parallel", "parallel"]} ins(%0, %collapsed : tensor<3x2xf32>, tensor<f32>) outs(%2 : tensor<3x2xf32>) {
  ^bb0(%in: f32, %in_0: f32, %out: f32):
    %5 = arith.addf %in, %in_0 : f32
    linalg.yield %5 : f32
  } -> tensor<3x2xf32>
  %4 = hal.tensor.export %3 "output0" : tensor<3x2xf32> -> !hal.buffer_view
  util.return %4 : !hal.buffer_view
}

// -----// IR Dump After CSE (cse) //----- //
util.func public @add(%arg0: !hal.buffer_view, %arg1: !hal.buffer_view) -> !hal.buffer_view attributes {iree.abi.stub, iree.reflection = {iree.abi.declaration = "sync func @add(%input0: tensor<3x2xf32>, %input1: tensor<1x1xf32>) -> (%output0: tensor<3x2xf32>)"}} {
  %0 = hal.tensor.import %arg0 "input0" : !hal.buffer_view -> tensor<3x2xf32>
  %1 = hal.tensor.import %arg1 "input1" : !hal.buffer_view -> tensor<1x1xf32>
  %2 = tensor.empty() : tensor<3x2xf32>
  %collapsed = tensor.collapse_shape %1 [] : tensor<1x1xf32> into tensor<f32>
  %3 = linalg.generic {indexing_maps = [affine_map<(d0, d1) -> (d0, d1)>, affine_map<(d0, d1) -> ()>, affine_map<(d0, d1) -> (d0, d1)>], iterator_types = ["parallel", "parallel"]} ins(%0, %collapsed : tensor<3x2xf32>, tensor<f32>) outs(%2 : tensor<3x2xf32>) {
  ^bb0(%in: f32, %in_0: f32, %out: f32):
    %5 = arith.addf %in, %in_0 : f32
    linalg.yield %5 : f32
  } -> tensor<3x2xf32>
  %4 = hal.tensor.export %3 "output0" : tensor<3x2xf32> -> !hal.buffer_view
  util.return %4 : !hal.buffer_view
}

// -----// IR Dump After SetEncoding (iree-global-opt-set-encoding) //----- //
#executable_target_embedded_elf_arm_64_ = #hal.executable.target<"llvm-cpu", "embedded-elf-arm_64", {cpu = "", cpu_features = "+reserve-x18", data_layout = "e-m:e-i8:8:32-i16:16:32-i64:64-i128:128-n32:64-S128-Fn32", native_vector_size = 16 : i64, target_triple = "aarch64-unknown-unknown-eabi-elf"}>
#map = affine_map<(d0, d1) -> (d0, d1)>
#map1 = affine_map<(d0, d1) -> ()>
#device_target_local = #hal.device.target<"local", [#executable_target_embedded_elf_arm_64_]>
module attributes {hal.device.targets = [#device_target_local]} {
  util.func public @add(%arg0: !hal.buffer_view, %arg1: !hal.buffer_view) -> !hal.buffer_view attributes {iree.abi.stub, iree.reflection = {iree.abi.declaration = "sync func @add(%input0: tensor<3x2xf32>, %input1: tensor<1x1xf32>) -> (%output0: tensor<3x2xf32>)"}} {
    %0 = hal.tensor.import %arg0 "input0" : !hal.buffer_view -> tensor<3x2xf32>
    %1 = hal.tensor.import %arg1 "input1" : !hal.buffer_view -> tensor<1x1xf32>
    %2 = tensor.empty() : tensor<3x2xf32>
    %collapsed = tensor.collapse_shape %1 [] : tensor<1x1xf32> into tensor<f32>
    %3 = linalg.generic {indexing_maps = [#map, #map1, #map], iterator_types = ["parallel", "parallel"]} ins(%0, %collapsed : tensor<3x2xf32>, tensor<f32>) outs(%2 : tensor<3x2xf32>) {
    ^bb0(%in: f32, %in_0: f32, %out: f32):
      %5 = arith.addf %in, %in_0 : f32
      linalg.yield %5 : f32
    } -> tensor<3x2xf32>
    %4 = hal.tensor.export %3 "output0" : tensor<3x2xf32> -> !hal.buffer_view
    util.return %4 : !hal.buffer_view
  }
}


// -----// IR Dump After CPUMaterializeUpperBoundTileSize (iree-codegen-cpu-materialize-upper-bound-tile-size) //----- //
util.func public @add(%arg0: !hal.buffer_view, %arg1: !hal.buffer_view) -> !hal.buffer_view attributes {iree.abi.stub, iree.reflection = {iree.abi.declaration = "sync func @add(%input0: tensor<3x2xf32>, %input1: tensor<1x1xf32>) -> (%output0: tensor<3x2xf32>)"}} {
  %0 = hal.tensor.import %arg0 "input0" : !hal.buffer_view -> tensor<3x2xf32>
  %1 = hal.tensor.import %arg1 "input1" : !hal.buffer_view -> tensor<1x1xf32>
  %2 = tensor.empty() : tensor<3x2xf32>
  %collapsed = tensor.collapse_shape %1 [] : tensor<1x1xf32> into tensor<f32>
  %3 = linalg.generic {indexing_maps = [affine_map<(d0, d1) -> (d0, d1)>, affine_map<(d0, d1) -> ()>, affine_map<(d0, d1) -> (d0, d1)>], iterator_types = ["parallel", "parallel"]} ins(%0, %collapsed : tensor<3x2xf32>, tensor<f32>) outs(%2 : tensor<3x2xf32>) {
  ^bb0(%in: f32, %in_0: f32, %out: f32):
    %5 = arith.addf %in, %in_0 : f32
    linalg.yield %5 : f32
  } -> tensor<3x2xf32>
  %4 = hal.tensor.export %3 "output0" : tensor<3x2xf32> -> !hal.buffer_view
  util.return %4 : !hal.buffer_view
}

// -----// IR Dump After CPUMaterializeEncoding (iree-codegen-cpu-materialize-encoding) //----- //
util.func public @add(%arg0: !hal.buffer_view, %arg1: !hal.buffer_view) -> !hal.buffer_view attributes {iree.abi.stub, iree.reflection = {iree.abi.declaration = "sync func @add(%input0: tensor<3x2xf32>, %input1: tensor<1x1xf32>) -> (%output0: tensor<3x2xf32>)"}} {
  %0 = hal.tensor.import %arg0 "input0" : !hal.buffer_view -> tensor<3x2xf32>
  %1 = hal.tensor.import %arg1 "input1" : !hal.buffer_view -> tensor<1x1xf32>
  %2 = tensor.empty() : tensor<3x2xf32>
  %collapsed = tensor.collapse_shape %1 [] : tensor<1x1xf32> into tensor<f32>
  %3 = linalg.generic {indexing_maps = [affine_map<(d0, d1) -> (d0, d1)>, affine_map<(d0, d1) -> ()>, affine_map<(d0, d1) -> (d0, d1)>], iterator_types = ["parallel", "parallel"]} ins(%0, %collapsed : tensor<3x2xf32>, tensor<f32>) outs(%2 : tensor<3x2xf32>) {
  ^bb0(%in: f32, %in_0: f32, %out: f32):
    %5 = arith.addf %in, %in_0 : f32
    linalg.yield %5 : f32
  } -> tensor<3x2xf32>
  %4 = hal.tensor.export %3 "output0" : tensor<3x2xf32> -> !hal.buffer_view
  util.return %4 : !hal.buffer_view
}

// -----// IR Dump After MaterializeHomogeneousEncodings (iree-global-opt-materialize-homogeneous-encodings) //----- //
#executable_target_embedded_elf_arm_64_ = #hal.executable.target<"llvm-cpu", "embedded-elf-arm_64", {cpu = "", cpu_features = "+reserve-x18", data_layout = "e-m:e-i8:8:32-i16:16:32-i64:64-i128:128-n32:64-S128-Fn32", native_vector_size = 16 : i64, target_triple = "aarch64-unknown-unknown-eabi-elf"}>
#map = affine_map<(d0, d1) -> (d0, d1)>
#map1 = affine_map<(d0, d1) -> ()>
#device_target_local = #hal.device.target<"local", [#executable_target_embedded_elf_arm_64_]>
module attributes {hal.device.targets = [#device_target_local]} {
  util.func public @add(%arg0: !hal.buffer_view, %arg1: !hal.buffer_view) -> !hal.buffer_view attributes {iree.abi.stub, iree.reflection = {iree.abi.declaration = "sync func @add(%input0: tensor<3x2xf32>, %input1: tensor<1x1xf32>) -> (%output0: tensor<3x2xf32>)"}} {
    %0 = hal.tensor.import %arg0 "input0" : !hal.buffer_view -> tensor<3x2xf32>
    %1 = hal.tensor.import %arg1 "input1" : !hal.buffer_view -> tensor<1x1xf32>
    %2 = tensor.empty() : tensor<3x2xf32>
    %collapsed = tensor.collapse_shape %1 [] : tensor<1x1xf32> into tensor<f32>
    %3 = linalg.generic {indexing_maps = [#map, #map1, #map], iterator_types = ["parallel", "parallel"]} ins(%0, %collapsed : tensor<3x2xf32>, tensor<f32>) outs(%2 : tensor<3x2xf32>) {
    ^bb0(%in: f32, %in_0: f32, %out: f32):
      %5 = arith.addf %in, %in_0 : f32
      linalg.yield %5 : f32
    } -> tensor<3x2xf32>
    %4 = hal.tensor.export %3 "output0" : tensor<3x2xf32> -> !hal.buffer_view
    util.return %4 : !hal.buffer_view
  }
}


// -----// IR Dump After Canonicalizer (canonicalize) //----- //
#executable_target_embedded_elf_arm_64_ = #hal.executable.target<"llvm-cpu", "embedded-elf-arm_64", {cpu = "", cpu_features = "+reserve-x18", data_layout = "e-m:e-i8:8:32-i16:16:32-i64:64-i128:128-n32:64-S128-Fn32", native_vector_size = 16 : i64, target_triple = "aarch64-unknown-unknown-eabi-elf"}>
#map = affine_map<(d0, d1) -> (d0, d1)>
#map1 = affine_map<(d0, d1) -> ()>
#device_target_local = #hal.device.target<"local", [#executable_target_embedded_elf_arm_64_]>
module attributes {hal.device.targets = [#device_target_local]} {
  util.func public @add(%arg0: !hal.buffer_view, %arg1: !hal.buffer_view) -> !hal.buffer_view attributes {iree.abi.stub, iree.reflection = {iree.abi.declaration = "sync func @add(%input0: tensor<3x2xf32>, %input1: tensor<1x1xf32>) -> (%output0: tensor<3x2xf32>)"}} {
    %0 = hal.tensor.import %arg0 "input0" : !hal.buffer_view -> tensor<3x2xf32>
    %1 = hal.tensor.import %arg1 "input1" : !hal.buffer_view -> tensor<1x1xf32>
    %2 = tensor.empty() : tensor<3x2xf32>
    %collapsed = tensor.collapse_shape %1 [] : tensor<1x1xf32> into tensor<f32>
    %3 = linalg.generic {indexing_maps = [#map, #map1, #map], iterator_types = ["parallel", "parallel"]} ins(%0, %collapsed : tensor<3x2xf32>, tensor<f32>) outs(%2 : tensor<3x2xf32>) {
    ^bb0(%in: f32, %in_0: f32, %out: f32):
      %5 = arith.addf %in, %in_0 : f32
      linalg.yield %5 : f32
    } -> tensor<3x2xf32>
    %4 = hal.tensor.export %3 "output0" : tensor<3x2xf32> -> !hal.buffer_view
    util.return %4 : !hal.buffer_view
  }
}


// -----// IR Dump After CSE (cse) //----- //
#executable_target_embedded_elf_arm_64_ = #hal.executable.target<"llvm-cpu", "embedded-elf-arm_64", {cpu = "", cpu_features = "+reserve-x18", data_layout = "e-m:e-i8:8:32-i16:16:32-i64:64-i128:128-n32:64-S128-Fn32", native_vector_size = 16 : i64, target_triple = "aarch64-unknown-unknown-eabi-elf"}>
#map = affine_map<(d0, d1) -> (d0, d1)>
#map1 = affine_map<(d0, d1) -> ()>
#device_target_local = #hal.device.target<"local", [#executable_target_embedded_elf_arm_64_]>
module attributes {hal.device.targets = [#device_target_local]} {
  util.func public @add(%arg0: !hal.buffer_view, %arg1: !hal.buffer_view) -> !hal.buffer_view attributes {iree.abi.stub, iree.reflection = {iree.abi.declaration = "sync func @add(%input0: tensor<3x2xf32>, %input1: tensor<1x1xf32>) -> (%output0: tensor<3x2xf32>)"}} {
    %0 = hal.tensor.import %arg0 "input0" : !hal.buffer_view -> tensor<3x2xf32>
    %1 = hal.tensor.import %arg1 "input1" : !hal.buffer_view -> tensor<1x1xf32>
    %2 = tensor.empty() : tensor<3x2xf32>
    %collapsed = tensor.collapse_shape %1 [] : tensor<1x1xf32> into tensor<f32>
    %3 = linalg.generic {indexing_maps = [#map, #map1, #map], iterator_types = ["parallel", "parallel"]} ins(%0, %collapsed : tensor<3x2xf32>, tensor<f32>) outs(%2 : tensor<3x2xf32>) {
    ^bb0(%in: f32, %in_0: f32, %out: f32):
      %5 = arith.addf %in, %in_0 : f32
      linalg.yield %5 : f32
    } -> tensor<3x2xf32>
    %4 = hal.tensor.export %3 "output0" : tensor<3x2xf32> -> !hal.buffer_view
    util.return %4 : !hal.buffer_view
  }
}


// -----// IR Dump After SimplifyPackUnpack (iree-global-opt-simplify-pack-unpack) //----- //
#executable_target_embedded_elf_arm_64_ = #hal.executable.target<"llvm-cpu", "embedded-elf-arm_64", {cpu = "", cpu_features = "+reserve-x18", data_layout = "e-m:e-i8:8:32-i16:16:32-i64:64-i128:128-n32:64-S128-Fn32", native_vector_size = 16 : i64, target_triple = "aarch64-unknown-unknown-eabi-elf"}>
#map = affine_map<(d0, d1) -> (d0, d1)>
#map1 = affine_map<(d0, d1) -> ()>
#device_target_local = #hal.device.target<"local", [#executable_target_embedded_elf_arm_64_]>
module attributes {hal.device.targets = [#device_target_local]} {
  util.func public @add(%arg0: !hal.buffer_view, %arg1: !hal.buffer_view) -> !hal.buffer_view attributes {iree.abi.stub, iree.reflection = {iree.abi.declaration = "sync func @add(%input0: tensor<3x2xf32>, %input1: tensor<1x1xf32>) -> (%output0: tensor<3x2xf32>)"}} {
    %0 = hal.tensor.import %arg0 "input0" : !hal.buffer_view -> tensor<3x2xf32>
    %1 = hal.tensor.import %arg1 "input1" : !hal.buffer_view -> tensor<1x1xf32>
    %2 = tensor.empty() : tensor<3x2xf32>
    %collapsed = tensor.collapse_shape %1 [] : tensor<1x1xf32> into tensor<f32>
    %3 = linalg.generic {indexing_maps = [#map, #map1, #map], iterator_types = ["parallel", "parallel"]} ins(%0, %collapsed : tensor<3x2xf32>, tensor<f32>) outs(%2 : tensor<3x2xf32>) {
    ^bb0(%in: f32, %in_0: f32, %out: f32):
      %5 = arith.addf %in, %in_0 : f32
      linalg.yield %5 : f32
    } -> tensor<3x2xf32>
    %4 = hal.tensor.export %3 "output0" : tensor<3x2xf32> -> !hal.buffer_view
    util.return %4 : !hal.buffer_view
  }
}


// -----// IR Dump After DataLayoutPropagation (iree-global-opt-data-layout-propagation) //----- //
util.func public @add(%arg0: !hal.buffer_view, %arg1: !hal.buffer_view) -> !hal.buffer_view attributes {iree.abi.stub, iree.reflection = {iree.abi.declaration = "sync func @add(%input0: tensor<3x2xf32>, %input1: tensor<1x1xf32>) -> (%output0: tensor<3x2xf32>)"}} {
  %0 = hal.tensor.import %arg0 "input0" : !hal.buffer_view -> tensor<3x2xf32>
  %1 = hal.tensor.import %arg1 "input1" : !hal.buffer_view -> tensor<1x1xf32>
  %2 = tensor.empty() : tensor<3x2xf32>
  %collapsed = tensor.collapse_shape %1 [] : tensor<1x1xf32> into tensor<f32>
  %3 = linalg.generic {indexing_maps = [affine_map<(d0, d1) -> (d0, d1)>, affine_map<(d0, d1) -> ()>, affine_map<(d0, d1) -> (d0, d1)>], iterator_types = ["parallel", "parallel"]} ins(%0, %collapsed : tensor<3x2xf32>, tensor<f32>) outs(%2 : tensor<3x2xf32>) {
  ^bb0(%in: f32, %in_0: f32, %out: f32):
    %5 = arith.addf %in, %in_0 : f32
    linalg.yield %5 : f32
  } -> tensor<3x2xf32>
  %4 = hal.tensor.export %3 "output0" : tensor<3x2xf32> -> !hal.buffer_view
  util.return %4 : !hal.buffer_view
}

// -----// IR Dump After GeneralizeLinalgNamedOps (iree-global-opt-generalize-linalg-named-ops) //----- //
util.func public @add(%arg0: !hal.buffer_view, %arg1: !hal.buffer_view) -> !hal.buffer_view attributes {iree.abi.stub, iree.reflection = {iree.abi.declaration = "sync func @add(%input0: tensor<3x2xf32>, %input1: tensor<1x1xf32>) -> (%output0: tensor<3x2xf32>)"}} {
  %0 = hal.tensor.import %arg0 "input0" : !hal.buffer_view -> tensor<3x2xf32>
  %1 = hal.tensor.import %arg1 "input1" : !hal.buffer_view -> tensor<1x1xf32>
  %2 = tensor.empty() : tensor<3x2xf32>
  %collapsed = tensor.collapse_shape %1 [] : tensor<1x1xf32> into tensor<f32>
  %3 = linalg.generic {indexing_maps = [affine_map<(d0, d1) -> (d0, d1)>, affine_map<(d0, d1) -> ()>, affine_map<(d0, d1) -> (d0, d1)>], iterator_types = ["parallel", "parallel"]} ins(%0, %collapsed : tensor<3x2xf32>, tensor<f32>) outs(%2 : tensor<3x2xf32>) {
  ^bb0(%in: f32, %in_0: f32, %out: f32):
    %5 = arith.addf %in, %in_0 : f32
    linalg.yield %5 : f32
  } -> tensor<3x2xf32>
  %4 = hal.tensor.export %3 "output0" : tensor<3x2xf32> -> !hal.buffer_view
  util.return %4 : !hal.buffer_view
}

// -----// IR Dump After GlobalLoopInvariantCodeMotion (iree-global-opt-loop-invariant-code-motion) //----- //
util.func public @add(%arg0: !hal.buffer_view, %arg1: !hal.buffer_view) -> !hal.buffer_view attributes {iree.abi.stub, iree.reflection = {iree.abi.declaration = "sync func @add(%input0: tensor<3x2xf32>, %input1: tensor<1x1xf32>) -> (%output0: tensor<3x2xf32>)"}} {
  %0 = hal.tensor.import %arg0 "input0" : !hal.buffer_view -> tensor<3x2xf32>
  %1 = hal.tensor.import %arg1 "input1" : !hal.buffer_view -> tensor<1x1xf32>
  %2 = tensor.empty() : tensor<3x2xf32>
  %collapsed = tensor.collapse_shape %1 [] : tensor<1x1xf32> into tensor<f32>
  %3 = linalg.generic {indexing_maps = [affine_map<(d0, d1) -> (d0, d1)>, affine_map<(d0, d1) -> ()>, affine_map<(d0, d1) -> (d0, d1)>], iterator_types = ["parallel", "parallel"]} ins(%0, %collapsed : tensor<3x2xf32>, tensor<f32>) outs(%2 : tensor<3x2xf32>) {
  ^bb0(%in: f32, %in_0: f32, %out: f32):
    %5 = arith.addf %in, %in_0 : f32
    linalg.yield %5 : f32
  } -> tensor<3x2xf32>
  %4 = hal.tensor.export %3 "output0" : tensor<3x2xf32> -> !hal.buffer_view
  util.return %4 : !hal.buffer_view
}

// -----// IR Dump After Canonicalizer (canonicalize) //----- //
util.func public @add(%arg0: !hal.buffer_view, %arg1: !hal.buffer_view) -> !hal.buffer_view attributes {iree.abi.stub, iree.reflection = {iree.abi.declaration = "sync func @add(%input0: tensor<3x2xf32>, %input1: tensor<1x1xf32>) -> (%output0: tensor<3x2xf32>)"}} {
  %0 = hal.tensor.import %arg0 "input0" : !hal.buffer_view -> tensor<3x2xf32>
  %1 = hal.tensor.import %arg1 "input1" : !hal.buffer_view -> tensor<1x1xf32>
  %2 = tensor.empty() : tensor<3x2xf32>
  %collapsed = tensor.collapse_shape %1 [] : tensor<1x1xf32> into tensor<f32>
  %3 = linalg.generic {indexing_maps = [affine_map<(d0, d1) -> (d0, d1)>, affine_map<(d0, d1) -> ()>, affine_map<(d0, d1) -> (d0, d1)>], iterator_types = ["parallel", "parallel"]} ins(%0, %collapsed : tensor<3x2xf32>, tensor<f32>) outs(%2 : tensor<3x2xf32>) {
  ^bb0(%in: f32, %in_0: f32, %out: f32):
    %5 = arith.addf %in, %in_0 : f32
    linalg.yield %5 : f32
  } -> tensor<3x2xf32>
  %4 = hal.tensor.export %3 "output0" : tensor<3x2xf32> -> !hal.buffer_view
  util.return %4 : !hal.buffer_view
}

// -----// IR Dump After CSE (cse) //----- //
util.func public @add(%arg0: !hal.buffer_view, %arg1: !hal.buffer_view) -> !hal.buffer_view attributes {iree.abi.stub, iree.reflection = {iree.abi.declaration = "sync func @add(%input0: tensor<3x2xf32>, %input1: tensor<1x1xf32>) -> (%output0: tensor<3x2xf32>)"}} {
  %0 = hal.tensor.import %arg0 "input0" : !hal.buffer_view -> tensor<3x2xf32>
  %1 = hal.tensor.import %arg1 "input1" : !hal.buffer_view -> tensor<1x1xf32>
  %2 = tensor.empty() : tensor<3x2xf32>
  %collapsed = tensor.collapse_shape %1 [] : tensor<1x1xf32> into tensor<f32>
  %3 = linalg.generic {indexing_maps = [affine_map<(d0, d1) -> (d0, d1)>, affine_map<(d0, d1) -> ()>, affine_map<(d0, d1) -> (d0, d1)>], iterator_types = ["parallel", "parallel"]} ins(%0, %collapsed : tensor<3x2xf32>, tensor<f32>) outs(%2 : tensor<3x2xf32>) {
  ^bb0(%in: f32, %in_0: f32, %out: f32):
    %5 = arith.addf %in, %in_0 : f32
    linalg.yield %5 : f32
  } -> tensor<3x2xf32>
  %4 = hal.tensor.export %3 "output0" : tensor<3x2xf32> -> !hal.buffer_view
  util.return %4 : !hal.buffer_view
}

// -----// IR Dump After SimplifyGlobalAccesses (iree-util-simplify-global-accesses) //----- //
util.func public @add(%arg0: !hal.buffer_view, %arg1: !hal.buffer_view) -> !hal.buffer_view attributes {iree.abi.stub, iree.reflection = {iree.abi.declaration = "sync func @add(%input0: tensor<3x2xf32>, %input1: tensor<1x1xf32>) -> (%output0: tensor<3x2xf32>)"}} {
  %0 = hal.tensor.import %arg0 "input0" : !hal.buffer_view -> tensor<3x2xf32>
  %1 = hal.tensor.import %arg1 "input1" : !hal.buffer_view -> tensor<1x1xf32>
  %2 = tensor.empty() : tensor<3x2xf32>
  %collapsed = tensor.collapse_shape %1 [] : tensor<1x1xf32> into tensor<f32>
  %3 = linalg.generic {indexing_maps = [affine_map<(d0, d1) -> (d0, d1)>, affine_map<(d0, d1) -> ()>, affine_map<(d0, d1) -> (d0, d1)>], iterator_types = ["parallel", "parallel"]} ins(%0, %collapsed : tensor<3x2xf32>, tensor<f32>) outs(%2 : tensor<3x2xf32>) {
  ^bb0(%in: f32, %in_0: f32, %out: f32):
    %5 = arith.addf %in, %in_0 : f32
    linalg.yield %5 : f32
  } -> tensor<3x2xf32>
  %4 = hal.tensor.export %3 "output0" : tensor<3x2xf32> -> !hal.buffer_view
  util.return %4 : !hal.buffer_view
}

// -----// IR Dump After ApplyPatterns (iree-util-apply-patterns) //----- //
#executable_target_embedded_elf_arm_64_ = #hal.executable.target<"llvm-cpu", "embedded-elf-arm_64", {cpu = "", cpu_features = "+reserve-x18", data_layout = "e-m:e-i8:8:32-i16:16:32-i64:64-i128:128-n32:64-S128-Fn32", native_vector_size = 16 : i64, target_triple = "aarch64-unknown-unknown-eabi-elf"}>
#map = affine_map<(d0, d1) -> (d0, d1)>
#map1 = affine_map<(d0, d1) -> ()>
#device_target_local = #hal.device.target<"local", [#executable_target_embedded_elf_arm_64_]>
module attributes {hal.device.targets = [#device_target_local]} {
  util.func public @add(%arg0: !hal.buffer_view, %arg1: !hal.buffer_view) -> !hal.buffer_view attributes {iree.abi.stub, iree.reflection = {iree.abi.declaration = "sync func @add(%input0: tensor<3x2xf32>, %input1: tensor<1x1xf32>) -> (%output0: tensor<3x2xf32>)"}} {
    %0 = hal.tensor.import %arg0 "input0" : !hal.buffer_view -> tensor<3x2xf32>
    %1 = hal.tensor.import %arg1 "input1" : !hal.buffer_view -> tensor<1x1xf32>
    %2 = tensor.empty() : tensor<3x2xf32>
    %collapsed = tensor.collapse_shape %1 [] : tensor<1x1xf32> into tensor<f32>
    %3 = linalg.generic {indexing_maps = [#map, #map1, #map], iterator_types = ["parallel", "parallel"]} ins(%0, %collapsed : tensor<3x2xf32>, tensor<f32>) outs(%2 : tensor<3x2xf32>) {
    ^bb0(%in: f32, %in_0: f32, %out: f32):
      %5 = arith.addf %in, %in_0 : f32
      linalg.yield %5 : f32
    } -> tensor<3x2xf32>
    %4 = hal.tensor.export %3 "output0" : tensor<3x2xf32> -> !hal.buffer_view
    util.return %4 : !hal.buffer_view
  }
}


// -----// IR Dump After FoldGlobals (iree-util-fold-globals) //----- //
#executable_target_embedded_elf_arm_64_ = #hal.executable.target<"llvm-cpu", "embedded-elf-arm_64", {cpu = "", cpu_features = "+reserve-x18", data_layout = "e-m:e-i8:8:32-i16:16:32-i64:64-i128:128-n32:64-S128-Fn32", native_vector_size = 16 : i64, target_triple = "aarch64-unknown-unknown-eabi-elf"}>
#map = affine_map<(d0, d1) -> (d0, d1)>
#map1 = affine_map<(d0, d1) -> ()>
#device_target_local = #hal.device.target<"local", [#executable_target_embedded_elf_arm_64_]>
module attributes {hal.device.targets = [#device_target_local]} {
  util.func public @add(%arg0: !hal.buffer_view, %arg1: !hal.buffer_view) -> !hal.buffer_view attributes {iree.abi.stub, iree.reflection = {iree.abi.declaration = "sync func @add(%input0: tensor<3x2xf32>, %input1: tensor<1x1xf32>) -> (%output0: tensor<3x2xf32>)"}} {
    %0 = hal.tensor.import %arg0 "input0" : !hal.buffer_view -> tensor<3x2xf32>
    %1 = hal.tensor.import %arg1 "input1" : !hal.buffer_view -> tensor<1x1xf32>
    %2 = tensor.empty() : tensor<3x2xf32>
    %collapsed = tensor.collapse_shape %1 [] : tensor<1x1xf32> into tensor<f32>
    %3 = linalg.generic {indexing_maps = [#map, #map1, #map], iterator_types = ["parallel", "parallel"]} ins(%0, %collapsed : tensor<3x2xf32>, tensor<f32>) outs(%2 : tensor<3x2xf32>) {
    ^bb0(%in: f32, %in_0: f32, %out: f32):
      %5 = arith.addf %in, %in_0 : f32
      linalg.yield %5 : f32
    } -> tensor<3x2xf32>
    %4 = hal.tensor.export %3 "output0" : tensor<3x2xf32> -> !hal.buffer_view
    util.return %4 : !hal.buffer_view
  }
}


// -----// IR Dump After IPO (iree-util-ipo) //----- //
#executable_target_embedded_elf_arm_64_ = #hal.executable.target<"llvm-cpu", "embedded-elf-arm_64", {cpu = "", cpu_features = "+reserve-x18", data_layout = "e-m:e-i8:8:32-i16:16:32-i64:64-i128:128-n32:64-S128-Fn32", native_vector_size = 16 : i64, target_triple = "aarch64-unknown-unknown-eabi-elf"}>
#map = affine_map<(d0, d1) -> (d0, d1)>
#map1 = affine_map<(d0, d1) -> ()>
#device_target_local = #hal.device.target<"local", [#executable_target_embedded_elf_arm_64_]>
module attributes {hal.device.targets = [#device_target_local]} {
  util.func public @add(%arg0: !hal.buffer_view, %arg1: !hal.buffer_view) -> !hal.buffer_view attributes {iree.abi.stub, iree.reflection = {iree.abi.declaration = "sync func @add(%input0: tensor<3x2xf32>, %input1: tensor<1x1xf32>) -> (%output0: tensor<3x2xf32>)"}} {
    %0 = hal.tensor.import %arg0 "input0" : !hal.buffer_view -> tensor<3x2xf32>
    %1 = hal.tensor.import %arg1 "input1" : !hal.buffer_view -> tensor<1x1xf32>
    %2 = tensor.empty() : tensor<3x2xf32>
    %collapsed = tensor.collapse_shape %1 [] : tensor<1x1xf32> into tensor<f32>
    %3 = linalg.generic {indexing_maps = [#map, #map1, #map], iterator_types = ["parallel", "parallel"]} ins(%0, %collapsed : tensor<3x2xf32>, tensor<f32>) outs(%2 : tensor<3x2xf32>) {
    ^bb0(%in: f32, %in_0: f32, %out: f32):
      %5 = arith.addf %in, %in_0 : f32
      linalg.yield %5 : f32
    } -> tensor<3x2xf32>
    %4 = hal.tensor.export %3 "output0" : tensor<3x2xf32> -> !hal.buffer_view
    util.return %4 : !hal.buffer_view
  }
}


// -----// IR Dump After Canonicalizer (canonicalize) //----- //
#executable_target_embedded_elf_arm_64_ = #hal.executable.target<"llvm-cpu", "embedded-elf-arm_64", {cpu = "", cpu_features = "+reserve-x18", data_layout = "e-m:e-i8:8:32-i16:16:32-i64:64-i128:128-n32:64-S128-Fn32", native_vector_size = 16 : i64, target_triple = "aarch64-unknown-unknown-eabi-elf"}>
#map = affine_map<(d0, d1) -> (d0, d1)>
#map1 = affine_map<(d0, d1) -> ()>
#device_target_local = #hal.device.target<"local", [#executable_target_embedded_elf_arm_64_]>
module attributes {hal.device.targets = [#device_target_local]} {
  util.func public @add(%arg0: !hal.buffer_view, %arg1: !hal.buffer_view) -> !hal.buffer_view attributes {iree.abi.stub, iree.reflection = {iree.abi.declaration = "sync func @add(%input0: tensor<3x2xf32>, %input1: tensor<1x1xf32>) -> (%output0: tensor<3x2xf32>)"}} {
    %0 = hal.tensor.import %arg0 "input0" : !hal.buffer_view -> tensor<3x2xf32>
    %1 = hal.tensor.import %arg1 "input1" : !hal.buffer_view -> tensor<1x1xf32>
    %2 = tensor.empty() : tensor<3x2xf32>
    %collapsed = tensor.collapse_shape %1 [] : tensor<1x1xf32> into tensor<f32>
    %3 = linalg.generic {indexing_maps = [#map, #map1, #map], iterator_types = ["parallel", "parallel"]} ins(%0, %collapsed : tensor<3x2xf32>, tensor<f32>) outs(%2 : tensor<3x2xf32>) {
    ^bb0(%in: f32, %in_0: f32, %out: f32):
      %5 = arith.addf %in, %in_0 : f32
      linalg.yield %5 : f32
    } -> tensor<3x2xf32>
    %4 = hal.tensor.export %3 "output0" : tensor<3x2xf32> -> !hal.buffer_view
    util.return %4 : !hal.buffer_view
  }
}


// -----// IR Dump After CSE (cse) //----- //
#executable_target_embedded_elf_arm_64_ = #hal.executable.target<"llvm-cpu", "embedded-elf-arm_64", {cpu = "", cpu_features = "+reserve-x18", data_layout = "e-m:e-i8:8:32-i16:16:32-i64:64-i128:128-n32:64-S128-Fn32", native_vector_size = 16 : i64, target_triple = "aarch64-unknown-unknown-eabi-elf"}>
#map = affine_map<(d0, d1) -> (d0, d1)>
#map1 = affine_map<(d0, d1) -> ()>
#device_target_local = #hal.device.target<"local", [#executable_target_embedded_elf_arm_64_]>
module attributes {hal.device.targets = [#device_target_local]} {
  util.func public @add(%arg0: !hal.buffer_view, %arg1: !hal.buffer_view) -> !hal.buffer_view attributes {iree.abi.stub, iree.reflection = {iree.abi.declaration = "sync func @add(%input0: tensor<3x2xf32>, %input1: tensor<1x1xf32>) -> (%output0: tensor<3x2xf32>)"}} {
    %0 = hal.tensor.import %arg0 "input0" : !hal.buffer_view -> tensor<3x2xf32>
    %1 = hal.tensor.import %arg1 "input1" : !hal.buffer_view -> tensor<1x1xf32>
    %2 = tensor.empty() : tensor<3x2xf32>
    %collapsed = tensor.collapse_shape %1 [] : tensor<1x1xf32> into tensor<f32>
    %3 = linalg.generic {indexing_maps = [#map, #map1, #map], iterator_types = ["parallel", "parallel"]} ins(%0, %collapsed : tensor<3x2xf32>, tensor<f32>) outs(%2 : tensor<3x2xf32>) {
    ^bb0(%in: f32, %in_0: f32, %out: f32):
      %5 = arith.addf %in, %in_0 : f32
      linalg.yield %5 : f32
    } -> tensor<3x2xf32>
    %4 = hal.tensor.export %3 "output0" : tensor<3x2xf32> -> !hal.buffer_view
    util.return %4 : !hal.buffer_view
  }
}


// -----// IR Dump After HoistIntoGlobals (iree-util-hoist-into-globals) //----- //
#executable_target_embedded_elf_arm_64_ = #hal.executable.target<"llvm-cpu", "embedded-elf-arm_64", {cpu = "", cpu_features = "+reserve-x18", data_layout = "e-m:e-i8:8:32-i16:16:32-i64:64-i128:128-n32:64-S128-Fn32", native_vector_size = 16 : i64, target_triple = "aarch64-unknown-unknown-eabi-elf"}>
#map = affine_map<(d0, d1) -> (d0, d1)>
#map1 = affine_map<(d0, d1) -> ()>
#device_target_local = #hal.device.target<"local", [#executable_target_embedded_elf_arm_64_]>
module attributes {hal.device.targets = [#device_target_local]} {
  util.func public @add(%arg0: !hal.buffer_view, %arg1: !hal.buffer_view) -> !hal.buffer_view attributes {iree.abi.stub, iree.reflection = {iree.abi.declaration = "sync func @add(%input0: tensor<3x2xf32>, %input1: tensor<1x1xf32>) -> (%output0: tensor<3x2xf32>)"}} {
    %0 = hal.tensor.import %arg0 "input0" : !hal.buffer_view -> tensor<3x2xf32>
    %1 = hal.tensor.import %arg1 "input1" : !hal.buffer_view -> tensor<1x1xf32>
    %2 = tensor.empty() : tensor<3x2xf32>
    %collapsed = tensor.collapse_shape %1 [] : tensor<1x1xf32> into tensor<f32>
    %3 = linalg.generic {indexing_maps = [#map, #map1, #map], iterator_types = ["parallel", "parallel"]} ins(%0, %collapsed : tensor<3x2xf32>, tensor<f32>) outs(%2 : tensor<3x2xf32>) {
    ^bb0(%in: f32, %in_0: f32, %out: f32):
      %5 = arith.addf %in, %in_0 : f32
      linalg.yield %5 : f32
    } -> tensor<3x2xf32>
    %4 = hal.tensor.export %3 "output0" : tensor<3x2xf32> -> !hal.buffer_view
    util.return %4 : !hal.buffer_view
  }
}


// -----// IR Dump After JitGlobals (iree-consteval-jit-globals) //----- //
#executable_target_embedded_elf_arm_64_ = #hal.executable.target<"llvm-cpu", "embedded-elf-arm_64", {cpu = "", cpu_features = "+reserve-x18", data_layout = "e-m:e-i8:8:32-i16:16:32-i64:64-i128:128-n32:64-S128-Fn32", native_vector_size = 16 : i64, target_triple = "aarch64-unknown-unknown-eabi-elf"}>
#map = affine_map<(d0, d1) -> (d0, d1)>
#map1 = affine_map<(d0, d1) -> ()>
#device_target_local = #hal.device.target<"local", [#executable_target_embedded_elf_arm_64_]>
module attributes {hal.device.targets = [#device_target_local]} {
  util.func public @add(%arg0: !hal.buffer_view, %arg1: !hal.buffer_view) -> !hal.buffer_view attributes {iree.abi.stub, iree.reflection = {iree.abi.declaration = "sync func @add(%input0: tensor<3x2xf32>, %input1: tensor<1x1xf32>) -> (%output0: tensor<3x2xf32>)"}} {
    %0 = hal.tensor.import %arg0 "input0" : !hal.buffer_view -> tensor<3x2xf32>
    %1 = hal.tensor.import %arg1 "input1" : !hal.buffer_view -> tensor<1x1xf32>
    %2 = tensor.empty() : tensor<3x2xf32>
    %collapsed = tensor.collapse_shape %1 [] : tensor<1x1xf32> into tensor<f32>
    %3 = linalg.generic {indexing_maps = [#map, #map1, #map], iterator_types = ["parallel", "parallel"]} ins(%0, %collapsed : tensor<3x2xf32>, tensor<f32>) outs(%2 : tensor<3x2xf32>) {
    ^bb0(%in: f32, %in_0: f32, %out: f32):
      %5 = arith.addf %in, %in_0 : f32
      linalg.yield %5 : f32
    } -> tensor<3x2xf32>
    %4 = hal.tensor.export %3 "output0" : tensor<3x2xf32> -> !hal.buffer_view
    util.return %4 : !hal.buffer_view
  }
}


// -----// IR Dump After Canonicalizer (canonicalize) //----- //
util.func public @add(%arg0: !hal.buffer_view, %arg1: !hal.buffer_view) -> !hal.buffer_view attributes {iree.abi.stub, iree.reflection = {iree.abi.declaration = "sync func @add(%input0: tensor<3x2xf32>, %input1: tensor<1x1xf32>) -> (%output0: tensor<3x2xf32>)"}} {
  %0 = hal.tensor.import %arg0 "input0" : !hal.buffer_view -> tensor<3x2xf32>
  %1 = hal.tensor.import %arg1 "input1" : !hal.buffer_view -> tensor<1x1xf32>
  %2 = tensor.empty() : tensor<3x2xf32>
  %collapsed = tensor.collapse_shape %1 [] : tensor<1x1xf32> into tensor<f32>
  %3 = linalg.generic {indexing_maps = [affine_map<(d0, d1) -> (d0, d1)>, affine_map<(d0, d1) -> ()>, affine_map<(d0, d1) -> (d0, d1)>], iterator_types = ["parallel", "parallel"]} ins(%0, %collapsed : tensor<3x2xf32>, tensor<f32>) outs(%2 : tensor<3x2xf32>) {
  ^bb0(%in: f32, %in_0: f32, %out: f32):
    %5 = arith.addf %in, %in_0 : f32
    linalg.yield %5 : f32
  } -> tensor<3x2xf32>
  %4 = hal.tensor.export %3 "output0" : tensor<3x2xf32> -> !hal.buffer_view
  util.return %4 : !hal.buffer_view
}

// -----// IR Dump After CSE (cse) //----- //
util.func public @add(%arg0: !hal.buffer_view, %arg1: !hal.buffer_view) -> !hal.buffer_view attributes {iree.abi.stub, iree.reflection = {iree.abi.declaration = "sync func @add(%input0: tensor<3x2xf32>, %input1: tensor<1x1xf32>) -> (%output0: tensor<3x2xf32>)"}} {
  %0 = hal.tensor.import %arg0 "input0" : !hal.buffer_view -> tensor<3x2xf32>
  %1 = hal.tensor.import %arg1 "input1" : !hal.buffer_view -> tensor<1x1xf32>
  %2 = tensor.empty() : tensor<3x2xf32>
  %collapsed = tensor.collapse_shape %1 [] : tensor<1x1xf32> into tensor<f32>
  %3 = linalg.generic {indexing_maps = [affine_map<(d0, d1) -> (d0, d1)>, affine_map<(d0, d1) -> ()>, affine_map<(d0, d1) -> (d0, d1)>], iterator_types = ["parallel", "parallel"]} ins(%0, %collapsed : tensor<3x2xf32>, tensor<f32>) outs(%2 : tensor<3x2xf32>) {
  ^bb0(%in: f32, %in_0: f32, %out: f32):
    %5 = arith.addf %in, %in_0 : f32
    linalg.yield %5 : f32
  } -> tensor<3x2xf32>
  %4 = hal.tensor.export %3 "output0" : tensor<3x2xf32> -> !hal.buffer_view
  util.return %4 : !hal.buffer_view
}

// -----// IR Dump After RaiseSpecialOps (iree-global-opt-raise-special-ops) //----- //
util.func public @add(%arg0: !hal.buffer_view, %arg1: !hal.buffer_view) -> !hal.buffer_view attributes {iree.abi.stub, iree.reflection = {iree.abi.declaration = "sync func @add(%input0: tensor<3x2xf32>, %input1: tensor<1x1xf32>) -> (%output0: tensor<3x2xf32>)"}} {
  %0 = hal.tensor.import %arg0 "input0" : !hal.buffer_view -> tensor<3x2xf32>
  %1 = hal.tensor.import %arg1 "input1" : !hal.buffer_view -> tensor<1x1xf32>
  %2 = tensor.empty() : tensor<3x2xf32>
  %collapsed = tensor.collapse_shape %1 [] : tensor<1x1xf32> into tensor<f32>
  %3 = linalg.generic {indexing_maps = [affine_map<(d0, d1) -> (d0, d1)>, affine_map<(d0, d1) -> ()>, affine_map<(d0, d1) -> (d0, d1)>], iterator_types = ["parallel", "parallel"]} ins(%0, %collapsed : tensor<3x2xf32>, tensor<f32>) outs(%2 : tensor<3x2xf32>) {
  ^bb0(%in: f32, %in_0: f32, %out: f32):
    %5 = arith.addf %in, %in_0 : f32
    linalg.yield %5 : f32
  } -> tensor<3x2xf32>
  %4 = hal.tensor.export %3 "output0" : tensor<3x2xf32> -> !hal.buffer_view
  util.return %4 : !hal.buffer_view
}

// -----// IR Dump After VerifyInputLegalityPass (iree-verify-input-legality) //----- //
#executable_target_embedded_elf_arm_64_ = #hal.executable.target<"llvm-cpu", "embedded-elf-arm_64", {cpu = "", cpu_features = "+reserve-x18", data_layout = "e-m:e-i8:8:32-i16:16:32-i64:64-i128:128-n32:64-S128-Fn32", native_vector_size = 16 : i64, target_triple = "aarch64-unknown-unknown-eabi-elf"}>
#map = affine_map<(d0, d1) -> (d0, d1)>
#map1 = affine_map<(d0, d1) -> ()>
#device_target_local = #hal.device.target<"local", [#executable_target_embedded_elf_arm_64_]>
module attributes {hal.device.targets = [#device_target_local]} {
  util.func public @add(%arg0: !hal.buffer_view, %arg1: !hal.buffer_view) -> !hal.buffer_view attributes {iree.abi.stub, iree.reflection = {iree.abi.declaration = "sync func @add(%input0: tensor<3x2xf32>, %input1: tensor<1x1xf32>) -> (%output0: tensor<3x2xf32>)"}} {
    %0 = hal.tensor.import %arg0 "input0" : !hal.buffer_view -> tensor<3x2xf32>
    %1 = hal.tensor.import %arg1 "input1" : !hal.buffer_view -> tensor<1x1xf32>
    %2 = tensor.empty() : tensor<3x2xf32>
    %collapsed = tensor.collapse_shape %1 [] : tensor<1x1xf32> into tensor<f32>
    %3 = linalg.generic {indexing_maps = [#map, #map1, #map], iterator_types = ["parallel", "parallel"]} ins(%0, %collapsed : tensor<3x2xf32>, tensor<f32>) outs(%2 : tensor<3x2xf32>) {
    ^bb0(%in: f32, %in_0: f32, %out: f32):
      %5 = arith.addf %in, %in_0 : f32
      linalg.yield %5 : f32
    } -> tensor<3x2xf32>
    %4 = hal.tensor.export %3 "output0" : tensor<3x2xf32> -> !hal.buffer_view
    util.return %4 : !hal.buffer_view
  }
}


// -----// IR Dump After InjectTensorTracingPass (iree-flow-inject-tensor-tracing) //----- //
util.func public @add(%arg0: !hal.buffer_view, %arg1: !hal.buffer_view) -> !hal.buffer_view attributes {iree.abi.stub, iree.reflection = {iree.abi.declaration = "sync func @add(%input0: tensor<3x2xf32>, %input1: tensor<1x1xf32>) -> (%output0: tensor<3x2xf32>)"}} {
  %0 = hal.tensor.import %arg0 "input0" : !hal.buffer_view -> tensor<3x2xf32>
  %1 = hal.tensor.import %arg1 "input1" : !hal.buffer_view -> tensor<1x1xf32>
  %2 = tensor.empty() : tensor<3x2xf32>
  %collapsed = tensor.collapse_shape %1 [] : tensor<1x1xf32> into tensor<f32>
  %3 = linalg.generic {indexing_maps = [affine_map<(d0, d1) -> (d0, d1)>, affine_map<(d0, d1) -> ()>, affine_map<(d0, d1) -> (d0, d1)>], iterator_types = ["parallel", "parallel"]} ins(%0, %collapsed : tensor<3x2xf32>, tensor<f32>) outs(%2 : tensor<3x2xf32>) {
  ^bb0(%in: f32, %in_0: f32, %out: f32):
    %5 = arith.addf %in, %in_0 : f32
    linalg.yield %5 : f32
  } -> tensor<3x2xf32>
  %4 = hal.tensor.export %3 "output0" : tensor<3x2xf32> -> !hal.buffer_view
  util.return %4 : !hal.buffer_view
}

// -----// IR Dump After TensorPadToTensorInsertSlicePass (iree-flow-tensor-pad-to-tensor-insert-slice) //----- //
#executable_target_embedded_elf_arm_64_ = #hal.executable.target<"llvm-cpu", "embedded-elf-arm_64", {cpu = "", cpu_features = "+reserve-x18", data_layout = "e-m:e-i8:8:32-i16:16:32-i64:64-i128:128-n32:64-S128-Fn32", native_vector_size = 16 : i64, target_triple = "aarch64-unknown-unknown-eabi-elf"}>
#map = affine_map<(d0, d1) -> (d0, d1)>
#map1 = affine_map<(d0, d1) -> ()>
#device_target_local = #hal.device.target<"local", [#executable_target_embedded_elf_arm_64_]>
module attributes {hal.device.targets = [#device_target_local]} {
  util.func public @add(%arg0: !hal.buffer_view, %arg1: !hal.buffer_view) -> !hal.buffer_view attributes {iree.abi.stub, iree.reflection = {iree.abi.declaration = "sync func @add(%input0: tensor<3x2xf32>, %input1: tensor<1x1xf32>) -> (%output0: tensor<3x2xf32>)"}} {
    %0 = hal.tensor.import %arg0 "input0" : !hal.buffer_view -> tensor<3x2xf32>
    %1 = hal.tensor.import %arg1 "input1" : !hal.buffer_view -> tensor<1x1xf32>
    %2 = tensor.empty() : tensor<3x2xf32>
    %collapsed = tensor.collapse_shape %1 [] : tensor<1x1xf32> into tensor<f32>
    %3 = linalg.generic {indexing_maps = [#map, #map1, #map], iterator_types = ["parallel", "parallel"]} ins(%0, %collapsed : tensor<3x2xf32>, tensor<f32>) outs(%2 : tensor<3x2xf32>) {
    ^bb0(%in: f32, %in_0: f32, %out: f32):
      %5 = arith.addf %in, %in_0 : f32
      linalg.yield %5 : f32
    } -> tensor<3x2xf32>
    %4 = hal.tensor.export %3 "output0" : tensor<3x2xf32> -> !hal.buffer_view
    util.return %4 : !hal.buffer_view
  }
}


// -----// IR Dump After Canonicalizer (canonicalize) //----- //
util.func public @add(%arg0: !hal.buffer_view, %arg1: !hal.buffer_view) -> !hal.buffer_view attributes {iree.abi.stub, iree.reflection = {iree.abi.declaration = "sync func @add(%input0: tensor<3x2xf32>, %input1: tensor<1x1xf32>) -> (%output0: tensor<3x2xf32>)"}} {
  %0 = hal.tensor.import %arg0 "input0" : !hal.buffer_view -> tensor<3x2xf32>
  %1 = hal.tensor.import %arg1 "input1" : !hal.buffer_view -> tensor<1x1xf32>
  %2 = tensor.empty() : tensor<3x2xf32>
  %collapsed = tensor.collapse_shape %1 [] : tensor<1x1xf32> into tensor<f32>
  %3 = linalg.generic {indexing_maps = [affine_map<(d0, d1) -> (d0, d1)>, affine_map<(d0, d1) -> ()>, affine_map<(d0, d1) -> (d0, d1)>], iterator_types = ["parallel", "parallel"]} ins(%0, %collapsed : tensor<3x2xf32>, tensor<f32>) outs(%2 : tensor<3x2xf32>) {
  ^bb0(%in: f32, %in_0: f32, %out: f32):
    %5 = arith.addf %in, %in_0 : f32
    linalg.yield %5 : f32
  } -> tensor<3x2xf32>
  %4 = hal.tensor.export %3 "output0" : tensor<3x2xf32> -> !hal.buffer_view
  util.return %4 : !hal.buffer_view
}

// -----// IR Dump After CSE (cse) //----- //
util.func public @add(%arg0: !hal.buffer_view, %arg1: !hal.buffer_view) -> !hal.buffer_view attributes {iree.abi.stub, iree.reflection = {iree.abi.declaration = "sync func @add(%input0: tensor<3x2xf32>, %input1: tensor<1x1xf32>) -> (%output0: tensor<3x2xf32>)"}} {
  %0 = hal.tensor.import %arg0 "input0" : !hal.buffer_view -> tensor<3x2xf32>
  %1 = hal.tensor.import %arg1 "input1" : !hal.buffer_view -> tensor<1x1xf32>
  %2 = tensor.empty() : tensor<3x2xf32>
  %collapsed = tensor.collapse_shape %1 [] : tensor<1x1xf32> into tensor<f32>
  %3 = linalg.generic {indexing_maps = [affine_map<(d0, d1) -> (d0, d1)>, affine_map<(d0, d1) -> ()>, affine_map<(d0, d1) -> (d0, d1)>], iterator_types = ["parallel", "parallel"]} ins(%0, %collapsed : tensor<3x2xf32>, tensor<f32>) outs(%2 : tensor<3x2xf32>) {
  ^bb0(%in: f32, %in_0: f32, %out: f32):
    %5 = arith.addf %in, %in_0 : f32
    linalg.yield %5 : f32
  } -> tensor<3x2xf32>
  %4 = hal.tensor.export %3 "output0" : tensor<3x2xf32> -> !hal.buffer_view
  util.return %4 : !hal.buffer_view
}

// -----// IR Dump After SimplifyGlobalAccesses (iree-util-simplify-global-accesses) //----- //
util.func public @add(%arg0: !hal.buffer_view, %arg1: !hal.buffer_view) -> !hal.buffer_view attributes {iree.abi.stub, iree.reflection = {iree.abi.declaration = "sync func @add(%input0: tensor<3x2xf32>, %input1: tensor<1x1xf32>) -> (%output0: tensor<3x2xf32>)"}} {
  %0 = hal.tensor.import %arg0 "input0" : !hal.buffer_view -> tensor<3x2xf32>
  %1 = hal.tensor.import %arg1 "input1" : !hal.buffer_view -> tensor<1x1xf32>
  %2 = tensor.empty() : tensor<3x2xf32>
  %collapsed = tensor.collapse_shape %1 [] : tensor<1x1xf32> into tensor<f32>
  %3 = linalg.generic {indexing_maps = [affine_map<(d0, d1) -> (d0, d1)>, affine_map<(d0, d1) -> ()>, affine_map<(d0, d1) -> (d0, d1)>], iterator_types = ["parallel", "parallel"]} ins(%0, %collapsed : tensor<3x2xf32>, tensor<f32>) outs(%2 : tensor<3x2xf32>) {
  ^bb0(%in: f32, %in_0: f32, %out: f32):
    %5 = arith.addf %in, %in_0 : f32
    linalg.yield %5 : f32
  } -> tensor<3x2xf32>
  %4 = hal.tensor.export %3 "output0" : tensor<3x2xf32> -> !hal.buffer_view
  util.return %4 : !hal.buffer_view
}

// -----// IR Dump After ApplyPatterns (iree-util-apply-patterns) //----- //
#executable_target_embedded_elf_arm_64_ = #hal.executable.target<"llvm-cpu", "embedded-elf-arm_64", {cpu = "", cpu_features = "+reserve-x18", data_layout = "e-m:e-i8:8:32-i16:16:32-i64:64-i128:128-n32:64-S128-Fn32", native_vector_size = 16 : i64, target_triple = "aarch64-unknown-unknown-eabi-elf"}>
#map = affine_map<(d0, d1) -> (d0, d1)>
#map1 = affine_map<(d0, d1) -> ()>
#device_target_local = #hal.device.target<"local", [#executable_target_embedded_elf_arm_64_]>
module attributes {hal.device.targets = [#device_target_local], iree.fixedpoint.iteration = 0 : index} {
  util.func public @add(%arg0: !hal.buffer_view, %arg1: !hal.buffer_view) -> !hal.buffer_view attributes {iree.abi.stub, iree.reflection = {iree.abi.declaration = "sync func @add(%input0: tensor<3x2xf32>, %input1: tensor<1x1xf32>) -> (%output0: tensor<3x2xf32>)"}} {
    %0 = hal.tensor.import %arg0 "input0" : !hal.buffer_view -> tensor<3x2xf32>
    %1 = hal.tensor.import %arg1 "input1" : !hal.buffer_view -> tensor<1x1xf32>
    %2 = tensor.empty() : tensor<3x2xf32>
    %collapsed = tensor.collapse_shape %1 [] : tensor<1x1xf32> into tensor<f32>
    %3 = linalg.generic {indexing_maps = [#map, #map1, #map], iterator_types = ["parallel", "parallel"]} ins(%0, %collapsed : tensor<3x2xf32>, tensor<f32>) outs(%2 : tensor<3x2xf32>) {
    ^bb0(%in: f32, %in_0: f32, %out: f32):
      %5 = arith.addf %in, %in_0 : f32
      linalg.yield %5 : f32
    } -> tensor<3x2xf32>
    %4 = hal.tensor.export %3 "output0" : tensor<3x2xf32> -> !hal.buffer_view
    util.return %4 : !hal.buffer_view
  }
}


// -----// IR Dump After FoldGlobals (iree-util-fold-globals) //----- //
#executable_target_embedded_elf_arm_64_ = #hal.executable.target<"llvm-cpu", "embedded-elf-arm_64", {cpu = "", cpu_features = "+reserve-x18", data_layout = "e-m:e-i8:8:32-i16:16:32-i64:64-i128:128-n32:64-S128-Fn32", native_vector_size = 16 : i64, target_triple = "aarch64-unknown-unknown-eabi-elf"}>
#map = affine_map<(d0, d1) -> (d0, d1)>
#map1 = affine_map<(d0, d1) -> ()>
#device_target_local = #hal.device.target<"local", [#executable_target_embedded_elf_arm_64_]>
module attributes {hal.device.targets = [#device_target_local], iree.fixedpoint.iteration = 0 : index} {
  util.func public @add(%arg0: !hal.buffer_view, %arg1: !hal.buffer_view) -> !hal.buffer_view attributes {iree.abi.stub, iree.reflection = {iree.abi.declaration = "sync func @add(%input0: tensor<3x2xf32>, %input1: tensor<1x1xf32>) -> (%output0: tensor<3x2xf32>)"}} {
    %0 = hal.tensor.import %arg0 "input0" : !hal.buffer_view -> tensor<3x2xf32>
    %1 = hal.tensor.import %arg1 "input1" : !hal.buffer_view -> tensor<1x1xf32>
    %2 = tensor.empty() : tensor<3x2xf32>
    %collapsed = tensor.collapse_shape %1 [] : tensor<1x1xf32> into tensor<f32>
    %3 = linalg.generic {indexing_maps = [#map, #map1, #map], iterator_types = ["parallel", "parallel"]} ins(%0, %collapsed : tensor<3x2xf32>, tensor<f32>) outs(%2 : tensor<3x2xf32>) {
    ^bb0(%in: f32, %in_0: f32, %out: f32):
      %5 = arith.addf %in, %in_0 : f32
      linalg.yield %5 : f32
    } -> tensor<3x2xf32>
    %4 = hal.tensor.export %3 "output0" : tensor<3x2xf32> -> !hal.buffer_view
    util.return %4 : !hal.buffer_view
  }
}


// -----// IR Dump After FuseGlobals (iree-util-fuse-globals) //----- //
#executable_target_embedded_elf_arm_64_ = #hal.executable.target<"llvm-cpu", "embedded-elf-arm_64", {cpu = "", cpu_features = "+reserve-x18", data_layout = "e-m:e-i8:8:32-i16:16:32-i64:64-i128:128-n32:64-S128-Fn32", native_vector_size = 16 : i64, target_triple = "aarch64-unknown-unknown-eabi-elf"}>
#map = affine_map<(d0, d1) -> (d0, d1)>
#map1 = affine_map<(d0, d1) -> ()>
#device_target_local = #hal.device.target<"local", [#executable_target_embedded_elf_arm_64_]>
module attributes {hal.device.targets = [#device_target_local], iree.fixedpoint.iteration = 0 : index} {
  util.func public @add(%arg0: !hal.buffer_view, %arg1: !hal.buffer_view) -> !hal.buffer_view attributes {iree.abi.stub, iree.reflection = {iree.abi.declaration = "sync func @add(%input0: tensor<3x2xf32>, %input1: tensor<1x1xf32>) -> (%output0: tensor<3x2xf32>)"}} {
    %0 = hal.tensor.import %arg0 "input0" : !hal.buffer_view -> tensor<3x2xf32>
    %1 = hal.tensor.import %arg1 "input1" : !hal.buffer_view -> tensor<1x1xf32>
    %2 = tensor.empty() : tensor<3x2xf32>
    %collapsed = tensor.collapse_shape %1 [] : tensor<1x1xf32> into tensor<f32>
    %3 = linalg.generic {indexing_maps = [#map, #map1, #map], iterator_types = ["parallel", "parallel"]} ins(%0, %collapsed : tensor<3x2xf32>, tensor<f32>) outs(%2 : tensor<3x2xf32>) {
    ^bb0(%in: f32, %in_0: f32, %out: f32):
      %5 = arith.addf %in, %in_0 : f32
      linalg.yield %5 : f32
    } -> tensor<3x2xf32>
    %4 = hal.tensor.export %3 "output0" : tensor<3x2xf32> -> !hal.buffer_view
    util.return %4 : !hal.buffer_view
  }
}


// -----// IR Dump After IPO (iree-util-ipo) //----- //
#executable_target_embedded_elf_arm_64_ = #hal.executable.target<"llvm-cpu", "embedded-elf-arm_64", {cpu = "", cpu_features = "+reserve-x18", data_layout = "e-m:e-i8:8:32-i16:16:32-i64:64-i128:128-n32:64-S128-Fn32", native_vector_size = 16 : i64, target_triple = "aarch64-unknown-unknown-eabi-elf"}>
#map = affine_map<(d0, d1) -> (d0, d1)>
#map1 = affine_map<(d0, d1) -> ()>
#device_target_local = #hal.device.target<"local", [#executable_target_embedded_elf_arm_64_]>
module attributes {hal.device.targets = [#device_target_local], iree.fixedpoint.iteration = 0 : index} {
  util.func public @add(%arg0: !hal.buffer_view, %arg1: !hal.buffer_view) -> !hal.buffer_view attributes {iree.abi.stub, iree.reflection = {iree.abi.declaration = "sync func @add(%input0: tensor<3x2xf32>, %input1: tensor<1x1xf32>) -> (%output0: tensor<3x2xf32>)"}} {
    %0 = hal.tensor.import %arg0 "input0" : !hal.buffer_view -> tensor<3x2xf32>
    %1 = hal.tensor.import %arg1 "input1" : !hal.buffer_view -> tensor<1x1xf32>
    %2 = tensor.empty() : tensor<3x2xf32>
    %collapsed = tensor.collapse_shape %1 [] : tensor<1x1xf32> into tensor<f32>
    %3 = linalg.generic {indexing_maps = [#map, #map1, #map], iterator_types = ["parallel", "parallel"]} ins(%0, %collapsed : tensor<3x2xf32>, tensor<f32>) outs(%2 : tensor<3x2xf32>) {
    ^bb0(%in: f32, %in_0: f32, %out: f32):
      %5 = arith.addf %in, %in_0 : f32
      linalg.yield %5 : f32
    } -> tensor<3x2xf32>
    %4 = hal.tensor.export %3 "output0" : tensor<3x2xf32> -> !hal.buffer_view
    util.return %4 : !hal.buffer_view
  }
}


// -----// IR Dump After FixedPointIterator (iree-util-fixed-point-iterator) //----- //
#executable_target_embedded_elf_arm_64_ = #hal.executable.target<"llvm-cpu", "embedded-elf-arm_64", {cpu = "", cpu_features = "+reserve-x18", data_layout = "e-m:e-i8:8:32-i16:16:32-i64:64-i128:128-n32:64-S128-Fn32", native_vector_size = 16 : i64, target_triple = "aarch64-unknown-unknown-eabi-elf"}>
#map = affine_map<(d0, d1) -> (d0, d1)>
#map1 = affine_map<(d0, d1) -> ()>
#device_target_local = #hal.device.target<"local", [#executable_target_embedded_elf_arm_64_]>
module attributes {hal.device.targets = [#device_target_local]} {
  util.func public @add(%arg0: !hal.buffer_view, %arg1: !hal.buffer_view) -> !hal.buffer_view attributes {iree.abi.stub, iree.reflection = {iree.abi.declaration = "sync func @add(%input0: tensor<3x2xf32>, %input1: tensor<1x1xf32>) -> (%output0: tensor<3x2xf32>)"}} {
    %0 = hal.tensor.import %arg0 "input0" : !hal.buffer_view -> tensor<3x2xf32>
    %1 = hal.tensor.import %arg1 "input1" : !hal.buffer_view -> tensor<1x1xf32>
    %2 = tensor.empty() : tensor<3x2xf32>
    %collapsed = tensor.collapse_shape %1 [] : tensor<1x1xf32> into tensor<f32>
    %3 = linalg.generic {indexing_maps = [#map, #map1, #map], iterator_types = ["parallel", "parallel"]} ins(%0, %collapsed : tensor<3x2xf32>, tensor<f32>) outs(%2 : tensor<3x2xf32>) {
    ^bb0(%in: f32, %in_0: f32, %out: f32):
      %5 = arith.addf %in, %in_0 : f32
      linalg.yield %5 : f32
    } -> tensor<3x2xf32>
    %4 = hal.tensor.export %3 "output0" : tensor<3x2xf32> -> !hal.buffer_view
    util.return %4 : !hal.buffer_view
  }
}


// -----// IR Dump After FusionPreprocessingPass (iree-flow-fusion-preprocessing) //----- //
util.func public @add(%arg0: !hal.buffer_view, %arg1: !hal.buffer_view) -> !hal.buffer_view attributes {iree.abi.stub, iree.reflection = {iree.abi.declaration = "sync func @add(%input0: tensor<3x2xf32>, %input1: tensor<1x1xf32>) -> (%output0: tensor<3x2xf32>)"}} {
  %0 = hal.tensor.import %arg0 "input0" : !hal.buffer_view -> tensor<3x2xf32>
  %1 = hal.tensor.import %arg1 "input1" : !hal.buffer_view -> tensor<1x1xf32>
  %2 = tensor.empty() : tensor<3x2xf32>
  %collapsed = tensor.collapse_shape %1 [] : tensor<1x1xf32> into tensor<f32>
  %3 = linalg.generic {indexing_maps = [affine_map<(d0, d1) -> (d0, d1)>, affine_map<(d0, d1) -> ()>, affine_map<(d0, d1) -> (d0, d1)>], iterator_types = ["parallel", "parallel"]} ins(%0, %collapsed : tensor<3x2xf32>, tensor<f32>) outs(%2 : tensor<3x2xf32>) {
  ^bb0(%in: f32, %in_0: f32, %out: f32):
    %5 = arith.addf %in, %in_0 : f32
    linalg.yield %5 : f32
  } -> tensor<3x2xf32>
  %4 = hal.tensor.export %3 "output0" : tensor<3x2xf32> -> !hal.buffer_view
  util.return %4 : !hal.buffer_view
}

// -----// IR Dump After Canonicalizer (canonicalize) //----- //
util.func public @add(%arg0: !hal.buffer_view, %arg1: !hal.buffer_view) -> !hal.buffer_view attributes {iree.abi.stub, iree.reflection = {iree.abi.declaration = "sync func @add(%input0: tensor<3x2xf32>, %input1: tensor<1x1xf32>) -> (%output0: tensor<3x2xf32>)"}} {
  %0 = hal.tensor.import %arg0 "input0" : !hal.buffer_view -> tensor<3x2xf32>
  %1 = hal.tensor.import %arg1 "input1" : !hal.buffer_view -> tensor<1x1xf32>
  %2 = tensor.empty() : tensor<3x2xf32>
  %collapsed = tensor.collapse_shape %1 [] : tensor<1x1xf32> into tensor<f32>
  %3 = linalg.generic {indexing_maps = [affine_map<(d0, d1) -> (d0, d1)>, affine_map<(d0, d1) -> ()>, affine_map<(d0, d1) -> (d0, d1)>], iterator_types = ["parallel", "parallel"]} ins(%0, %collapsed : tensor<3x2xf32>, tensor<f32>) outs(%2 : tensor<3x2xf32>) {
  ^bb0(%in: f32, %in_0: f32, %out: f32):
    %5 = arith.addf %in, %in_0 : f32
    linalg.yield %5 : f32
  } -> tensor<3x2xf32>
  %4 = hal.tensor.export %3 "output0" : tensor<3x2xf32> -> !hal.buffer_view
  util.return %4 : !hal.buffer_view
}

// -----// IR Dump After CSE (cse) //----- //
util.func public @add(%arg0: !hal.buffer_view, %arg1: !hal.buffer_view) -> !hal.buffer_view attributes {iree.abi.stub, iree.reflection = {iree.abi.declaration = "sync func @add(%input0: tensor<3x2xf32>, %input1: tensor<1x1xf32>) -> (%output0: tensor<3x2xf32>)"}} {
  %0 = hal.tensor.import %arg0 "input0" : !hal.buffer_view -> tensor<3x2xf32>
  %1 = hal.tensor.import %arg1 "input1" : !hal.buffer_view -> tensor<1x1xf32>
  %2 = tensor.empty() : tensor<3x2xf32>
  %collapsed = tensor.collapse_shape %1 [] : tensor<1x1xf32> into tensor<f32>
  %3 = linalg.generic {indexing_maps = [affine_map<(d0, d1) -> (d0, d1)>, affine_map<(d0, d1) -> ()>, affine_map<(d0, d1) -> (d0, d1)>], iterator_types = ["parallel", "parallel"]} ins(%0, %collapsed : tensor<3x2xf32>, tensor<f32>) outs(%2 : tensor<3x2xf32>) {
  ^bb0(%in: f32, %in_0: f32, %out: f32):
    %5 = arith.addf %in, %in_0 : f32
    linalg.yield %5 : f32
  } -> tensor<3x2xf32>
  %4 = hal.tensor.export %3 "output0" : tensor<3x2xf32> -> !hal.buffer_view
  util.return %4 : !hal.buffer_view
}

// -----// IR Dump After ElementwiseOpFusionPass (iree-flow-elementwise-op-fusion) //----- //
util.func public @add(%arg0: !hal.buffer_view, %arg1: !hal.buffer_view) -> !hal.buffer_view attributes {iree.abi.stub, iree.reflection = {iree.abi.declaration = "sync func @add(%input0: tensor<3x2xf32>, %input1: tensor<1x1xf32>) -> (%output0: tensor<3x2xf32>)"}} {
  %0 = hal.tensor.import %arg0 "input0" : !hal.buffer_view -> tensor<3x2xf32>
  %1 = hal.tensor.import %arg1 "input1" : !hal.buffer_view -> tensor<1x1xf32>
  %2 = tensor.empty() : tensor<3x2xf32>
  %collapsed = tensor.collapse_shape %1 [] : tensor<1x1xf32> into tensor<f32>
  %3 = linalg.generic {indexing_maps = [affine_map<(d0, d1) -> (d0, d1)>, affine_map<(d0, d1) -> ()>, affine_map<(d0, d1) -> (d0, d1)>], iterator_types = ["parallel", "parallel"]} ins(%0, %collapsed : tensor<3x2xf32>, tensor<f32>) outs(%2 : tensor<3x2xf32>) {
  ^bb0(%in: f32, %in_0: f32, %out: f32):
    %5 = arith.addf %in, %in_0 : f32
    linalg.yield %5 : f32
  } -> tensor<3x2xf32>
  %4 = hal.tensor.export %3 "output0" : tensor<3x2xf32> -> !hal.buffer_view
  util.return %4 : !hal.buffer_view
}

// -----// IR Dump After Canonicalizer (canonicalize) //----- //
util.func public @add(%arg0: !hal.buffer_view, %arg1: !hal.buffer_view) -> !hal.buffer_view attributes {iree.abi.stub, iree.reflection = {iree.abi.declaration = "sync func @add(%input0: tensor<3x2xf32>, %input1: tensor<1x1xf32>) -> (%output0: tensor<3x2xf32>)"}} {
  %0 = hal.tensor.import %arg0 "input0" : !hal.buffer_view -> tensor<3x2xf32>
  %1 = hal.tensor.import %arg1 "input1" : !hal.buffer_view -> tensor<1x1xf32>
  %2 = tensor.empty() : tensor<3x2xf32>
  %collapsed = tensor.collapse_shape %1 [] : tensor<1x1xf32> into tensor<f32>
  %3 = linalg.generic {indexing_maps = [affine_map<(d0, d1) -> (d0, d1)>, affine_map<(d0, d1) -> ()>, affine_map<(d0, d1) -> (d0, d1)>], iterator_types = ["parallel", "parallel"]} ins(%0, %collapsed : tensor<3x2xf32>, tensor<f32>) outs(%2 : tensor<3x2xf32>) {
  ^bb0(%in: f32, %in_0: f32, %out: f32):
    %5 = arith.addf %in, %in_0 : f32
    linalg.yield %5 : f32
  } -> tensor<3x2xf32>
  %4 = hal.tensor.export %3 "output0" : tensor<3x2xf32> -> !hal.buffer_view
  util.return %4 : !hal.buffer_view
}

// -----// IR Dump After CSE (cse) //----- //
util.func public @add(%arg0: !hal.buffer_view, %arg1: !hal.buffer_view) -> !hal.buffer_view attributes {iree.abi.stub, iree.reflection = {iree.abi.declaration = "sync func @add(%input0: tensor<3x2xf32>, %input1: tensor<1x1xf32>) -> (%output0: tensor<3x2xf32>)"}} {
  %0 = hal.tensor.import %arg0 "input0" : !hal.buffer_view -> tensor<3x2xf32>
  %1 = hal.tensor.import %arg1 "input1" : !hal.buffer_view -> tensor<1x1xf32>
  %2 = tensor.empty() : tensor<3x2xf32>
  %collapsed = tensor.collapse_shape %1 [] : tensor<1x1xf32> into tensor<f32>
  %3 = linalg.generic {indexing_maps = [affine_map<(d0, d1) -> (d0, d1)>, affine_map<(d0, d1) -> ()>, affine_map<(d0, d1) -> (d0, d1)>], iterator_types = ["parallel", "parallel"]} ins(%0, %collapsed : tensor<3x2xf32>, tensor<f32>) outs(%2 : tensor<3x2xf32>) {
  ^bb0(%in: f32, %in_0: f32, %out: f32):
    %5 = arith.addf %in, %in_0 : f32
    linalg.yield %5 : f32
  } -> tensor<3x2xf32>
  %4 = hal.tensor.export %3 "output0" : tensor<3x2xf32> -> !hal.buffer_view
  util.return %4 : !hal.buffer_view
}

// -----// IR Dump After BubbleUpExpandShapesPass (iree-flow-bubble-up-expand-shapes) //----- //
util.func public @add(%arg0: !hal.buffer_view, %arg1: !hal.buffer_view) -> !hal.buffer_view attributes {iree.abi.stub, iree.reflection = {iree.abi.declaration = "sync func @add(%input0: tensor<3x2xf32>, %input1: tensor<1x1xf32>) -> (%output0: tensor<3x2xf32>)"}} {
  %0 = hal.tensor.import %arg0 "input0" : !hal.buffer_view -> tensor<3x2xf32>
  %1 = hal.tensor.import %arg1 "input1" : !hal.buffer_view -> tensor<1x1xf32>
  %2 = tensor.empty() : tensor<3x2xf32>
  %collapsed = tensor.collapse_shape %1 [] : tensor<1x1xf32> into tensor<f32>
  %3 = linalg.generic {indexing_maps = [affine_map<(d0, d1) -> (d0, d1)>, affine_map<(d0, d1) -> ()>, affine_map<(d0, d1) -> (d0, d1)>], iterator_types = ["parallel", "parallel"]} ins(%0, %collapsed : tensor<3x2xf32>, tensor<f32>) outs(%2 : tensor<3x2xf32>) {
  ^bb0(%in: f32, %in_0: f32, %out: f32):
    %5 = arith.addf %in, %in_0 : f32
    linalg.yield %5 : f32
  } -> tensor<3x2xf32>
  %4 = hal.tensor.export %3 "output0" : tensor<3x2xf32> -> !hal.buffer_view
  util.return %4 : !hal.buffer_view
}

// -----// IR Dump After Canonicalizer (canonicalize) //----- //
util.func public @add(%arg0: !hal.buffer_view, %arg1: !hal.buffer_view) -> !hal.buffer_view attributes {iree.abi.stub, iree.reflection = {iree.abi.declaration = "sync func @add(%input0: tensor<3x2xf32>, %input1: tensor<1x1xf32>) -> (%output0: tensor<3x2xf32>)"}} {
  %0 = hal.tensor.import %arg0 "input0" : !hal.buffer_view -> tensor<3x2xf32>
  %1 = hal.tensor.import %arg1 "input1" : !hal.buffer_view -> tensor<1x1xf32>
  %2 = tensor.empty() : tensor<3x2xf32>
  %collapsed = tensor.collapse_shape %1 [] : tensor<1x1xf32> into tensor<f32>
  %3 = linalg.generic {indexing_maps = [affine_map<(d0, d1) -> (d0, d1)>, affine_map<(d0, d1) -> ()>, affine_map<(d0, d1) -> (d0, d1)>], iterator_types = ["parallel", "parallel"]} ins(%0, %collapsed : tensor<3x2xf32>, tensor<f32>) outs(%2 : tensor<3x2xf32>) {
  ^bb0(%in: f32, %in_0: f32, %out: f32):
    %5 = arith.addf %in, %in_0 : f32
    linalg.yield %5 : f32
  } -> tensor<3x2xf32>
  %4 = hal.tensor.export %3 "output0" : tensor<3x2xf32> -> !hal.buffer_view
  util.return %4 : !hal.buffer_view
}

// -----// IR Dump After CSE (cse) //----- //
util.func public @add(%arg0: !hal.buffer_view, %arg1: !hal.buffer_view) -> !hal.buffer_view attributes {iree.abi.stub, iree.reflection = {iree.abi.declaration = "sync func @add(%input0: tensor<3x2xf32>, %input1: tensor<1x1xf32>) -> (%output0: tensor<3x2xf32>)"}} {
  %0 = hal.tensor.import %arg0 "input0" : !hal.buffer_view -> tensor<3x2xf32>
  %1 = hal.tensor.import %arg1 "input1" : !hal.buffer_view -> tensor<1x1xf32>
  %2 = tensor.empty() : tensor<3x2xf32>
  %collapsed = tensor.collapse_shape %1 [] : tensor<1x1xf32> into tensor<f32>
  %3 = linalg.generic {indexing_maps = [affine_map<(d0, d1) -> (d0, d1)>, affine_map<(d0, d1) -> ()>, affine_map<(d0, d1) -> (d0, d1)>], iterator_types = ["parallel", "parallel"]} ins(%0, %collapsed : tensor<3x2xf32>, tensor<f32>) outs(%2 : tensor<3x2xf32>) {
  ^bb0(%in: f32, %in_0: f32, %out: f32):
    %5 = arith.addf %in, %in_0 : f32
    linalg.yield %5 : f32
  } -> tensor<3x2xf32>
  %4 = hal.tensor.export %3 "output0" : tensor<3x2xf32> -> !hal.buffer_view
  util.return %4 : !hal.buffer_view
}

// -----// IR Dump After ElementwiseOpFusionPass (iree-flow-elementwise-op-fusion) //----- //
util.func public @add(%arg0: !hal.buffer_view, %arg1: !hal.buffer_view) -> !hal.buffer_view attributes {iree.abi.stub, iree.reflection = {iree.abi.declaration = "sync func @add(%input0: tensor<3x2xf32>, %input1: tensor<1x1xf32>) -> (%output0: tensor<3x2xf32>)"}} {
  %0 = hal.tensor.import %arg0 "input0" : !hal.buffer_view -> tensor<3x2xf32>
  %1 = hal.tensor.import %arg1 "input1" : !hal.buffer_view -> tensor<1x1xf32>
  %2 = tensor.empty() : tensor<3x2xf32>
  %collapsed = tensor.collapse_shape %1 [] : tensor<1x1xf32> into tensor<f32>
  %3 = linalg.generic {indexing_maps = [affine_map<(d0, d1) -> (d0, d1)>, affine_map<(d0, d1) -> ()>, affine_map<(d0, d1) -> (d0, d1)>], iterator_types = ["parallel", "parallel"]} ins(%0, %collapsed : tensor<3x2xf32>, tensor<f32>) outs(%2 : tensor<3x2xf32>) {
  ^bb0(%in: f32, %in_0: f32, %out: f32):
    %5 = arith.addf %in, %in_0 : f32
    linalg.yield %5 : f32
  } -> tensor<3x2xf32>
  %4 = hal.tensor.export %3 "output0" : tensor<3x2xf32> -> !hal.buffer_view
  util.return %4 : !hal.buffer_view
}

// -----// IR Dump After Canonicalizer (canonicalize) //----- //
util.func public @add(%arg0: !hal.buffer_view, %arg1: !hal.buffer_view) -> !hal.buffer_view attributes {iree.abi.stub, iree.reflection = {iree.abi.declaration = "sync func @add(%input0: tensor<3x2xf32>, %input1: tensor<1x1xf32>) -> (%output0: tensor<3x2xf32>)"}} {
  %0 = hal.tensor.import %arg0 "input0" : !hal.buffer_view -> tensor<3x2xf32>
  %1 = hal.tensor.import %arg1 "input1" : !hal.buffer_view -> tensor<1x1xf32>
  %2 = tensor.empty() : tensor<3x2xf32>
  %collapsed = tensor.collapse_shape %1 [] : tensor<1x1xf32> into tensor<f32>
  %3 = linalg.generic {indexing_maps = [affine_map<(d0, d1) -> (d0, d1)>, affine_map<(d0, d1) -> ()>, affine_map<(d0, d1) -> (d0, d1)>], iterator_types = ["parallel", "parallel"]} ins(%0, %collapsed : tensor<3x2xf32>, tensor<f32>) outs(%2 : tensor<3x2xf32>) {
  ^bb0(%in: f32, %in_0: f32, %out: f32):
    %5 = arith.addf %in, %in_0 : f32
    linalg.yield %5 : f32
  } -> tensor<3x2xf32>
  %4 = hal.tensor.export %3 "output0" : tensor<3x2xf32> -> !hal.buffer_view
  util.return %4 : !hal.buffer_view
}

// -----// IR Dump After CSE (cse) //----- //
util.func public @add(%arg0: !hal.buffer_view, %arg1: !hal.buffer_view) -> !hal.buffer_view attributes {iree.abi.stub, iree.reflection = {iree.abi.declaration = "sync func @add(%input0: tensor<3x2xf32>, %input1: tensor<1x1xf32>) -> (%output0: tensor<3x2xf32>)"}} {
  %0 = hal.tensor.import %arg0 "input0" : !hal.buffer_view -> tensor<3x2xf32>
  %1 = hal.tensor.import %arg1 "input1" : !hal.buffer_view -> tensor<1x1xf32>
  %2 = tensor.empty() : tensor<3x2xf32>
  %collapsed = tensor.collapse_shape %1 [] : tensor<1x1xf32> into tensor<f32>
  %3 = linalg.generic {indexing_maps = [affine_map<(d0, d1) -> (d0, d1)>, affine_map<(d0, d1) -> ()>, affine_map<(d0, d1) -> (d0, d1)>], iterator_types = ["parallel", "parallel"]} ins(%0, %collapsed : tensor<3x2xf32>, tensor<f32>) outs(%2 : tensor<3x2xf32>) {
  ^bb0(%in: f32, %in_0: f32, %out: f32):
    %5 = arith.addf %in, %in_0 : f32
    linalg.yield %5 : f32
  } -> tensor<3x2xf32>
  %4 = hal.tensor.export %3 "output0" : tensor<3x2xf32> -> !hal.buffer_view
  util.return %4 : !hal.buffer_view
}

// -----// IR Dump After SinkReshapesPass (iree-flow-sink-reshapes) //----- //
util.func public @add(%arg0: !hal.buffer_view, %arg1: !hal.buffer_view) -> !hal.buffer_view attributes {iree.abi.stub, iree.reflection = {iree.abi.declaration = "sync func @add(%input0: tensor<3x2xf32>, %input1: tensor<1x1xf32>) -> (%output0: tensor<3x2xf32>)"}} {
  %0 = hal.tensor.import %arg0 "input0" : !hal.buffer_view -> tensor<3x2xf32>
  %1 = hal.tensor.import %arg1 "input1" : !hal.buffer_view -> tensor<1x1xf32>
  %2 = tensor.empty() : tensor<3x2xf32>
  %collapsed = tensor.collapse_shape %1 [] : tensor<1x1xf32> into tensor<f32>
  %3 = linalg.generic {indexing_maps = [affine_map<(d0, d1) -> (d0, d1)>, affine_map<(d0, d1) -> ()>, affine_map<(d0, d1) -> (d0, d1)>], iterator_types = ["parallel", "parallel"]} ins(%0, %collapsed : tensor<3x2xf32>, tensor<f32>) outs(%2 : tensor<3x2xf32>) {
  ^bb0(%in: f32, %in_0: f32, %out: f32):
    %5 = arith.addf %in, %in_0 : f32
    linalg.yield %5 : f32
  } -> tensor<3x2xf32>
  %4 = hal.tensor.export %3 "output0" : tensor<3x2xf32> -> !hal.buffer_view
  util.return %4 : !hal.buffer_view
}

// -----// IR Dump After Canonicalizer (canonicalize) //----- //
util.func public @add(%arg0: !hal.buffer_view, %arg1: !hal.buffer_view) -> !hal.buffer_view attributes {iree.abi.stub, iree.reflection = {iree.abi.declaration = "sync func @add(%input0: tensor<3x2xf32>, %input1: tensor<1x1xf32>) -> (%output0: tensor<3x2xf32>)"}} {
  %0 = hal.tensor.import %arg0 "input0" : !hal.buffer_view -> tensor<3x2xf32>
  %1 = hal.tensor.import %arg1 "input1" : !hal.buffer_view -> tensor<1x1xf32>
  %2 = tensor.empty() : tensor<3x2xf32>
  %collapsed = tensor.collapse_shape %1 [] : tensor<1x1xf32> into tensor<f32>
  %3 = linalg.generic {indexing_maps = [affine_map<(d0, d1) -> (d0, d1)>, affine_map<(d0, d1) -> ()>, affine_map<(d0, d1) -> (d0, d1)>], iterator_types = ["parallel", "parallel"]} ins(%0, %collapsed : tensor<3x2xf32>, tensor<f32>) outs(%2 : tensor<3x2xf32>) {
  ^bb0(%in: f32, %in_0: f32, %out: f32):
    %5 = arith.addf %in, %in_0 : f32
    linalg.yield %5 : f32
  } -> tensor<3x2xf32>
  %4 = hal.tensor.export %3 "output0" : tensor<3x2xf32> -> !hal.buffer_view
  util.return %4 : !hal.buffer_view
}

// -----// IR Dump After CSE (cse) //----- //
util.func public @add(%arg0: !hal.buffer_view, %arg1: !hal.buffer_view) -> !hal.buffer_view attributes {iree.abi.stub, iree.reflection = {iree.abi.declaration = "sync func @add(%input0: tensor<3x2xf32>, %input1: tensor<1x1xf32>) -> (%output0: tensor<3x2xf32>)"}} {
  %0 = hal.tensor.import %arg0 "input0" : !hal.buffer_view -> tensor<3x2xf32>
  %1 = hal.tensor.import %arg1 "input1" : !hal.buffer_view -> tensor<1x1xf32>
  %2 = tensor.empty() : tensor<3x2xf32>
  %collapsed = tensor.collapse_shape %1 [] : tensor<1x1xf32> into tensor<f32>
  %3 = linalg.generic {indexing_maps = [affine_map<(d0, d1) -> (d0, d1)>, affine_map<(d0, d1) -> ()>, affine_map<(d0, d1) -> (d0, d1)>], iterator_types = ["parallel", "parallel"]} ins(%0, %collapsed : tensor<3x2xf32>, tensor<f32>) outs(%2 : tensor<3x2xf32>) {
  ^bb0(%in: f32, %in_0: f32, %out: f32):
    %5 = arith.addf %in, %in_0 : f32
    linalg.yield %5 : f32
  } -> tensor<3x2xf32>
  %4 = hal.tensor.export %3 "output0" : tensor<3x2xf32> -> !hal.buffer_view
  util.return %4 : !hal.buffer_view
}

// -----// IR Dump After FusionOfTensorOpsPass (iree-flow-fusion-of-tensor-ops) //----- //
util.func public @add(%arg0: !hal.buffer_view, %arg1: !hal.buffer_view) -> !hal.buffer_view attributes {iree.abi.stub, iree.reflection = {iree.abi.declaration = "sync func @add(%input0: tensor<3x2xf32>, %input1: tensor<1x1xf32>) -> (%output0: tensor<3x2xf32>)"}} {
  %0 = hal.tensor.import %arg0 "input0" : !hal.buffer_view -> tensor<3x2xf32>
  %1 = hal.tensor.import %arg1 "input1" : !hal.buffer_view -> tensor<1x1xf32>
  %2 = tensor.empty() : tensor<3x2xf32>
  %collapsed = tensor.collapse_shape %1 [] : tensor<1x1xf32> into tensor<f32>
  %3 = linalg.generic {indexing_maps = [affine_map<(d0, d1) -> (d0, d1)>, affine_map<(d0, d1) -> ()>, affine_map<(d0, d1) -> (d0, d1)>], iterator_types = ["parallel", "parallel"]} ins(%0, %collapsed : tensor<3x2xf32>, tensor<f32>) outs(%2 : tensor<3x2xf32>) {
  ^bb0(%in: f32, %in_0: f32, %out: f32):
    %5 = arith.addf %in, %in_0 : f32
    linalg.yield %5 : f32
  } -> tensor<3x2xf32>
  %4 = hal.tensor.export %3 "output0" : tensor<3x2xf32> -> !hal.buffer_view
  util.return %4 : !hal.buffer_view
}

// -----// IR Dump After Canonicalizer (canonicalize) //----- //
util.func public @add(%arg0: !hal.buffer_view, %arg1: !hal.buffer_view) -> !hal.buffer_view attributes {iree.abi.stub, iree.reflection = {iree.abi.declaration = "sync func @add(%input0: tensor<3x2xf32>, %input1: tensor<1x1xf32>) -> (%output0: tensor<3x2xf32>)"}} {
  %0 = hal.tensor.import %arg0 "input0" : !hal.buffer_view -> tensor<3x2xf32>
  %1 = hal.tensor.import %arg1 "input1" : !hal.buffer_view -> tensor<1x1xf32>
  %2 = tensor.empty() : tensor<3x2xf32>
  %collapsed = tensor.collapse_shape %1 [] : tensor<1x1xf32> into tensor<f32>
  %3 = linalg.generic {indexing_maps = [affine_map<(d0, d1) -> (d0, d1)>, affine_map<(d0, d1) -> ()>, affine_map<(d0, d1) -> (d0, d1)>], iterator_types = ["parallel", "parallel"]} ins(%0, %collapsed : tensor<3x2xf32>, tensor<f32>) outs(%2 : tensor<3x2xf32>) {
  ^bb0(%in: f32, %in_0: f32, %out: f32):
    %5 = arith.addf %in, %in_0 : f32
    linalg.yield %5 : f32
  } -> tensor<3x2xf32>
  %4 = hal.tensor.export %3 "output0" : tensor<3x2xf32> -> !hal.buffer_view
  util.return %4 : !hal.buffer_view
}

// -----// IR Dump After CSE (cse) //----- //
util.func public @add(%arg0: !hal.buffer_view, %arg1: !hal.buffer_view) -> !hal.buffer_view attributes {iree.abi.stub, iree.reflection = {iree.abi.declaration = "sync func @add(%input0: tensor<3x2xf32>, %input1: tensor<1x1xf32>) -> (%output0: tensor<3x2xf32>)"}} {
  %0 = hal.tensor.import %arg0 "input0" : !hal.buffer_view -> tensor<3x2xf32>
  %1 = hal.tensor.import %arg1 "input1" : !hal.buffer_view -> tensor<1x1xf32>
  %2 = tensor.empty() : tensor<3x2xf32>
  %collapsed = tensor.collapse_shape %1 [] : tensor<1x1xf32> into tensor<f32>
  %3 = linalg.generic {indexing_maps = [affine_map<(d0, d1) -> (d0, d1)>, affine_map<(d0, d1) -> ()>, affine_map<(d0, d1) -> (d0, d1)>], iterator_types = ["parallel", "parallel"]} ins(%0, %collapsed : tensor<3x2xf32>, tensor<f32>) outs(%2 : tensor<3x2xf32>) {
  ^bb0(%in: f32, %in_0: f32, %out: f32):
    %5 = arith.addf %in, %in_0 : f32
    linalg.yield %5 : f32
  } -> tensor<3x2xf32>
  %4 = hal.tensor.export %3 "output0" : tensor<3x2xf32> -> !hal.buffer_view
  util.return %4 : !hal.buffer_view
}

// -----// IR Dump After SplitReductionPass (iree-flow-split-reduction-ops) //----- //
util.func public @add(%arg0: !hal.buffer_view, %arg1: !hal.buffer_view) -> !hal.buffer_view attributes {iree.abi.stub, iree.reflection = {iree.abi.declaration = "sync func @add(%input0: tensor<3x2xf32>, %input1: tensor<1x1xf32>) -> (%output0: tensor<3x2xf32>)"}} {
  %0 = hal.tensor.import %arg0 "input0" : !hal.buffer_view -> tensor<3x2xf32>
  %1 = hal.tensor.import %arg1 "input1" : !hal.buffer_view -> tensor<1x1xf32>
  %2 = tensor.empty() : tensor<3x2xf32>
  %collapsed = tensor.collapse_shape %1 [] : tensor<1x1xf32> into tensor<f32>
  %3 = linalg.generic {indexing_maps = [affine_map<(d0, d1) -> (d0, d1)>, affine_map<(d0, d1) -> ()>, affine_map<(d0, d1) -> (d0, d1)>], iterator_types = ["parallel", "parallel"]} ins(%0, %collapsed : tensor<3x2xf32>, tensor<f32>) outs(%2 : tensor<3x2xf32>) {
  ^bb0(%in: f32, %in_0: f32, %out: f32):
    %5 = arith.addf %in, %in_0 : f32
    linalg.yield %5 : f32
  } -> tensor<3x2xf32>
  %4 = hal.tensor.export %3 "output0" : tensor<3x2xf32> -> !hal.buffer_view
  util.return %4 : !hal.buffer_view
}

// -----// IR Dump After FusionPreprocessingPass (iree-flow-fusion-preprocessing) //----- //
util.func public @add(%arg0: !hal.buffer_view, %arg1: !hal.buffer_view) -> !hal.buffer_view attributes {iree.abi.stub, iree.reflection = {iree.abi.declaration = "sync func @add(%input0: tensor<3x2xf32>, %input1: tensor<1x1xf32>) -> (%output0: tensor<3x2xf32>)"}} {
  %0 = hal.tensor.import %arg0 "input0" : !hal.buffer_view -> tensor<3x2xf32>
  %1 = hal.tensor.import %arg1 "input1" : !hal.buffer_view -> tensor<1x1xf32>
  %2 = tensor.empty() : tensor<3x2xf32>
  %collapsed = tensor.collapse_shape %1 [] : tensor<1x1xf32> into tensor<f32>
  %3 = linalg.generic {indexing_maps = [affine_map<(d0, d1) -> (d0, d1)>, affine_map<(d0, d1) -> ()>, affine_map<(d0, d1) -> (d0, d1)>], iterator_types = ["parallel", "parallel"]} ins(%0, %collapsed : tensor<3x2xf32>, tensor<f32>) outs(%2 : tensor<3x2xf32>) {
  ^bb0(%in: f32, %in_0: f32, %out: f32):
    %5 = arith.addf %in, %in_0 : f32
    linalg.yield %5 : f32
  } -> tensor<3x2xf32>
  %4 = hal.tensor.export %3 "output0" : tensor<3x2xf32> -> !hal.buffer_view
  util.return %4 : !hal.buffer_view
}

// -----// IR Dump After InterchangeTransposeGenericOpsPass (iree-flow-interchange-transpose-generic-ops) //----- //
util.func public @add(%arg0: !hal.buffer_view, %arg1: !hal.buffer_view) -> !hal.buffer_view attributes {iree.abi.stub, iree.reflection = {iree.abi.declaration = "sync func @add(%input0: tensor<3x2xf32>, %input1: tensor<1x1xf32>) -> (%output0: tensor<3x2xf32>)"}} {
  %0 = hal.tensor.import %arg0 "input0" : !hal.buffer_view -> tensor<3x2xf32>
  %1 = hal.tensor.import %arg1 "input1" : !hal.buffer_view -> tensor<1x1xf32>
  %2 = tensor.empty() : tensor<3x2xf32>
  %collapsed = tensor.collapse_shape %1 [] : tensor<1x1xf32> into tensor<f32>
  %3 = linalg.generic {indexing_maps = [affine_map<(d0, d1) -> (d0, d1)>, affine_map<(d0, d1) -> ()>, affine_map<(d0, d1) -> (d0, d1)>], iterator_types = ["parallel", "parallel"]} ins(%0, %collapsed : tensor<3x2xf32>, tensor<f32>) outs(%2 : tensor<3x2xf32>) {
  ^bb0(%in: f32, %in_0: f32, %out: f32):
    %5 = arith.addf %in, %in_0 : f32
    linalg.yield %5 : f32
  } -> tensor<3x2xf32>
  %4 = hal.tensor.export %3 "output0" : tensor<3x2xf32> -> !hal.buffer_view
  util.return %4 : !hal.buffer_view
}

// -----// IR Dump After FormScalarDispatchesPass (iree-flow-form-scalar-dispatches) //----- //
util.func public @add(%arg0: !hal.buffer_view, %arg1: !hal.buffer_view) -> !hal.buffer_view attributes {iree.abi.stub, iree.reflection = {iree.abi.declaration = "sync func @add(%input0: tensor<3x2xf32>, %input1: tensor<1x1xf32>) -> (%output0: tensor<3x2xf32>)"}} {
  %0 = hal.tensor.import %arg0 "input0" : !hal.buffer_view -> tensor<3x2xf32>
  %1 = hal.tensor.import %arg1 "input1" : !hal.buffer_view -> tensor<1x1xf32>
  %2 = tensor.empty() : tensor<3x2xf32>
  %collapsed = tensor.collapse_shape %1 [] : tensor<1x1xf32> into tensor<f32>
  %3 = linalg.generic {indexing_maps = [affine_map<(d0, d1) -> (d0, d1)>, affine_map<(d0, d1) -> ()>, affine_map<(d0, d1) -> (d0, d1)>], iterator_types = ["parallel", "parallel"]} ins(%0, %collapsed : tensor<3x2xf32>, tensor<f32>) outs(%2 : tensor<3x2xf32>) {
  ^bb0(%in: f32, %in_0: f32, %out: f32):
    %5 = arith.addf %in, %in_0 : f32
    linalg.yield %5 : f32
  } -> tensor<3x2xf32>
  %4 = hal.tensor.export %3 "output0" : tensor<3x2xf32> -> !hal.buffer_view
  util.return %4 : !hal.buffer_view
}

// -----// IR Dump After FormDispatchRegionsPass (iree-flow-form-dispatch-regions) //----- //
util.func public @add(%arg0: !hal.buffer_view, %arg1: !hal.buffer_view) -> !hal.buffer_view attributes {iree.abi.stub, iree.reflection = {iree.abi.declaration = "sync func @add(%input0: tensor<3x2xf32>, %input1: tensor<1x1xf32>) -> (%output0: tensor<3x2xf32>)"}} {
  %0 = hal.tensor.import %arg0 "input0" : !hal.buffer_view -> tensor<3x2xf32>
  %1 = hal.tensor.import %arg1 "input1" : !hal.buffer_view -> tensor<1x1xf32>
  %2 = tensor.empty() : tensor<3x2xf32>
  %collapsed = tensor.collapse_shape %1 [] : tensor<1x1xf32> into tensor<f32>
  %3 = flow.dispatch.region -> (tensor<3x2xf32>) {
    %5 = linalg.generic {indexing_maps = [affine_map<(d0, d1) -> (d0, d1)>, affine_map<(d0, d1) -> ()>, affine_map<(d0, d1) -> (d0, d1)>], iterator_types = ["parallel", "parallel"]} ins(%0, %collapsed : tensor<3x2xf32>, tensor<f32>) outs(%2 : tensor<3x2xf32>) {
    ^bb0(%in: f32, %in_0: f32, %out: f32):
      %6 = arith.addf %in, %in_0 : f32
      linalg.yield %6 : f32
    } -> tensor<3x2xf32>
    flow.return %5 : tensor<3x2xf32>
  }
  %4 = hal.tensor.export %3 "output0" : tensor<3x2xf32> -> !hal.buffer_view
  util.return %4 : !hal.buffer_view
}

// -----// IR Dump After CloneProducersIntoDispatchRegionsPass (iree-flow-clone-producers-into-dispatch-regions) //----- //
util.func public @add(%arg0: !hal.buffer_view, %arg1: !hal.buffer_view) -> !hal.buffer_view attributes {iree.abi.stub, iree.reflection = {iree.abi.declaration = "sync func @add(%input0: tensor<3x2xf32>, %input1: tensor<1x1xf32>) -> (%output0: tensor<3x2xf32>)"}} {
  %0 = hal.tensor.import %arg0 "input0" : !hal.buffer_view -> tensor<3x2xf32>
  %1 = hal.tensor.import %arg1 "input1" : !hal.buffer_view -> tensor<1x1xf32>
  %2 = tensor.empty() : tensor<3x2xf32>
  %collapsed = tensor.collapse_shape %1 [] : tensor<1x1xf32> into tensor<f32>
  %3 = flow.dispatch.region -> (tensor<3x2xf32>) {
    %5 = tensor.empty() : tensor<3x2xf32>
    %6 = linalg.generic {indexing_maps = [affine_map<(d0, d1) -> (d0, d1)>, affine_map<(d0, d1) -> ()>, affine_map<(d0, d1) -> (d0, d1)>], iterator_types = ["parallel", "parallel"]} ins(%0, %collapsed : tensor<3x2xf32>, tensor<f32>) outs(%5 : tensor<3x2xf32>) {
    ^bb0(%in: f32, %in_0: f32, %out: f32):
      %7 = arith.addf %in, %in_0 : f32
      linalg.yield %7 : f32
    } -> tensor<3x2xf32>
    flow.return %6 : tensor<3x2xf32>
  }
  %4 = hal.tensor.export %3 "output0" : tensor<3x2xf32> -> !hal.buffer_view
  util.return %4 : !hal.buffer_view
}

// -----// IR Dump After CollapseDimensionsPass (iree-flow-collapse-dimensions) //----- //
util.func public @add(%arg0: !hal.buffer_view, %arg1: !hal.buffer_view) -> !hal.buffer_view attributes {iree.abi.stub, iree.reflection = {iree.abi.declaration = "sync func @add(%input0: tensor<3x2xf32>, %input1: tensor<1x1xf32>) -> (%output0: tensor<3x2xf32>)"}} {
  %0 = hal.tensor.import %arg0 "input0" : !hal.buffer_view -> tensor<3x2xf32>
  %1 = hal.tensor.import %arg1 "input1" : !hal.buffer_view -> tensor<1x1xf32>
  %2 = tensor.empty() : tensor<3x2xf32>
  %collapsed = tensor.collapse_shape %1 [] : tensor<1x1xf32> into tensor<f32>
  %collapsed_0 = tensor.collapse_shape %0 [[0, 1]] : tensor<3x2xf32> into tensor<6xf32>
  %3 = flow.dispatch.region -> (tensor<6xf32>) {
    %5 = tensor.empty() : tensor<6xf32>
    %6 = linalg.generic {indexing_maps = [affine_map<(d0) -> (d0)>, affine_map<(d0) -> ()>, affine_map<(d0) -> (d0)>], iterator_types = ["parallel"]} ins(%collapsed_0, %collapsed : tensor<6xf32>, tensor<f32>) outs(%5 : tensor<6xf32>) {
    ^bb0(%in: f32, %in_2: f32, %out: f32):
      %7 = arith.addf %in, %in_2 : f32
      linalg.yield %7 : f32
    } -> tensor<6xf32>
    %expanded_1 = tensor.expand_shape %6 [[0, 1]] output_shape [3, 2] : tensor<6xf32> into tensor<3x2xf32>
    flow.return %6 : tensor<6xf32>
  }
  %expanded = tensor.expand_shape %3 [[0, 1]] output_shape [3, 2] : tensor<6xf32> into tensor<3x2xf32>
  %4 = hal.tensor.export %expanded "output0" : tensor<3x2xf32> -> !hal.buffer_view
  util.return %4 : !hal.buffer_view
}

// -----// IR Dump After FormDispatchWorkgroupsPass (iree-flow-form-dispatch-workgroups) //----- //
util.func public @add(%arg0: !hal.buffer_view, %arg1: !hal.buffer_view) -> !hal.buffer_view attributes {iree.abi.stub, iree.reflection = {iree.abi.declaration = "sync func @add(%input0: tensor<3x2xf32>, %input1: tensor<1x1xf32>) -> (%output0: tensor<3x2xf32>)"}} {
  %0 = hal.tensor.import %arg0 "input0" : !hal.buffer_view -> tensor<3x2xf32>
  %1 = hal.tensor.import %arg1 "input1" : !hal.buffer_view -> tensor<1x1xf32>
  %2 = flow.tensor.reshape %1 : tensor<1x1xf32> -> tensor<f32>
  %3 = flow.tensor.reshape %0 : tensor<3x2xf32> -> tensor<6xf32>
  %4 = flow.dispatch.workgroups(%3, %2) : (tensor<6xf32>, tensor<f32>) -> tensor<6xf32> =
      (%arg2: !flow.dispatch.tensor<readonly:tensor<6xf32>>, %arg3: !flow.dispatch.tensor<readonly:tensor<f32>>, %arg4: !flow.dispatch.tensor<writeonly:tensor<6xf32>>) {
    %7 = flow.dispatch.tensor.load %arg2, offsets = [0], sizes = [6], strides = [1] : !flow.dispatch.tensor<readonly:tensor<6xf32>> -> tensor<6xf32>
    %8 = flow.dispatch.tensor.load %arg3, offsets = [], sizes = [], strides = [] : !flow.dispatch.tensor<readonly:tensor<f32>> -> tensor<f32>
    %9 = tensor.empty() : tensor<6xf32>
    %10 = linalg.generic {indexing_maps = [affine_map<(d0) -> (d0)>, affine_map<(d0) -> ()>, affine_map<(d0) -> (d0)>], iterator_types = ["parallel"]} ins(%7, %8 : tensor<6xf32>, tensor<f32>) outs(%9 : tensor<6xf32>) {
    ^bb0(%in: f32, %in_0: f32, %out: f32):
      %11 = arith.addf %in, %in_0 : f32
      linalg.yield %11 : f32
    } -> tensor<6xf32>
    flow.dispatch.tensor.store %10, %arg4, offsets = [0], sizes = [6], strides = [1] : tensor<6xf32> -> !flow.dispatch.tensor<writeonly:tensor<6xf32>>
    flow.return
  } count() -> (index, index, index) {
    %x, %y, %z = flow.dispatch.workgroup_count_from_slice 
    flow.return %x, %y, %z : index, index, index
  }
  %5 = flow.tensor.reshape %4 : tensor<6xf32> -> tensor<3x2xf32>
  %6 = hal.tensor.export %5 "output0" : tensor<3x2xf32> -> !hal.buffer_view
  util.return %6 : !hal.buffer_view
}

// -----// IR Dump After CaptureDynamicDimsPass (iree-flow-capture-dynamic-dims) //----- //
util.func public @add(%arg0: !hal.buffer_view, %arg1: !hal.buffer_view) -> !hal.buffer_view attributes {iree.abi.stub, iree.reflection = {iree.abi.declaration = "sync func @add(%input0: tensor<3x2xf32>, %input1: tensor<1x1xf32>) -> (%output0: tensor<3x2xf32>)"}} {
  %0 = hal.tensor.import %arg0 "input0" : !hal.buffer_view -> tensor<3x2xf32>
  %1 = hal.tensor.import %arg1 "input1" : !hal.buffer_view -> tensor<1x1xf32>
  %2 = flow.tensor.reshape %1 : tensor<1x1xf32> -> tensor<f32>
  %3 = flow.tensor.reshape %0 : tensor<3x2xf32> -> tensor<6xf32>
  %4 = flow.dispatch.workgroups(%3, %2) : (tensor<6xf32>, tensor<f32>) -> tensor<6xf32> =
      (%arg2: !flow.dispatch.tensor<readonly:tensor<6xf32>>, %arg3: !flow.dispatch.tensor<readonly:tensor<f32>>, %arg4: !flow.dispatch.tensor<writeonly:tensor<6xf32>>) {
    %7 = flow.dispatch.tensor.load %arg2, offsets = [0], sizes = [6], strides = [1] : !flow.dispatch.tensor<readonly:tensor<6xf32>> -> tensor<6xf32>
    %8 = flow.dispatch.tensor.load %arg3, offsets = [], sizes = [], strides = [] : !flow.dispatch.tensor<readonly:tensor<f32>> -> tensor<f32>
    %9 = tensor.empty() : tensor<6xf32>
    %10 = linalg.generic {indexing_maps = [affine_map<(d0) -> (d0)>, affine_map<(d0) -> ()>, affine_map<(d0) -> (d0)>], iterator_types = ["parallel"]} ins(%7, %8 : tensor<6xf32>, tensor<f32>) outs(%9 : tensor<6xf32>) {
    ^bb0(%in: f32, %in_0: f32, %out: f32):
      %11 = arith.addf %in, %in_0 : f32
      linalg.yield %11 : f32
    } -> tensor<6xf32>
    flow.dispatch.tensor.store %10, %arg4, offsets = [0], sizes = [6], strides = [1] : tensor<6xf32> -> !flow.dispatch.tensor<writeonly:tensor<6xf32>>
    flow.return
  } count() -> (index, index, index) {
    %x, %y, %z = flow.dispatch.workgroup_count_from_slice 
    flow.return %x, %y, %z : index, index, index
  }
  %5 = flow.tensor.reshape %4 : tensor<6xf32> -> tensor<3x2xf32>
  %6 = hal.tensor.export %5 "output0" : tensor<3x2xf32> -> !hal.buffer_view
  util.return %6 : !hal.buffer_view
}

// -----// IR Dump After Canonicalizer (canonicalize) //----- //
util.func public @add(%arg0: !hal.buffer_view, %arg1: !hal.buffer_view) -> !hal.buffer_view attributes {iree.abi.stub, iree.reflection = {iree.abi.declaration = "sync func @add(%input0: tensor<3x2xf32>, %input1: tensor<1x1xf32>) -> (%output0: tensor<3x2xf32>)"}} {
  %0 = hal.tensor.import %arg0 "input0" : !hal.buffer_view -> tensor<3x2xf32>
  %1 = hal.tensor.import %arg1 "input1" : !hal.buffer_view -> tensor<1x1xf32>
  %2 = flow.tensor.reshape %1 : tensor<1x1xf32> -> tensor<f32>
  %3 = flow.tensor.reshape %0 : tensor<3x2xf32> -> tensor<6xf32>
  %4 = flow.dispatch.workgroups(%3, %2) : (tensor<6xf32>, tensor<f32>) -> tensor<6xf32> =
      (%arg2: !flow.dispatch.tensor<readonly:tensor<6xf32>>, %arg3: !flow.dispatch.tensor<readonly:tensor<f32>>, %arg4: !flow.dispatch.tensor<writeonly:tensor<6xf32>>) {
    %7 = flow.dispatch.tensor.load %arg2, offsets = [0], sizes = [6], strides = [1] : !flow.dispatch.tensor<readonly:tensor<6xf32>> -> tensor<6xf32>
    %8 = flow.dispatch.tensor.load %arg3, offsets = [], sizes = [], strides = [] : !flow.dispatch.tensor<readonly:tensor<f32>> -> tensor<f32>
    %9 = tensor.empty() : tensor<6xf32>
    %10 = linalg.generic {indexing_maps = [affine_map<(d0) -> (d0)>, affine_map<(d0) -> ()>, affine_map<(d0) -> (d0)>], iterator_types = ["parallel"]} ins(%7, %8 : tensor<6xf32>, tensor<f32>) outs(%9 : tensor<6xf32>) {
    ^bb0(%in: f32, %in_0: f32, %out: f32):
      %11 = arith.addf %in, %in_0 : f32
      linalg.yield %11 : f32
    } -> tensor<6xf32>
    flow.dispatch.tensor.store %10, %arg4, offsets = [0], sizes = [6], strides = [1] : tensor<6xf32> -> !flow.dispatch.tensor<writeonly:tensor<6xf32>>
    flow.return
  } count() -> (index, index, index) {
    %x, %y, %z = flow.dispatch.workgroup_count_from_slice 
    flow.return %x, %y, %z : index, index, index
  }
  %5 = flow.tensor.reshape %4 : tensor<6xf32> -> tensor<3x2xf32>
  %6 = hal.tensor.export %5 "output0" : tensor<3x2xf32> -> !hal.buffer_view
  util.return %6 : !hal.buffer_view
}

// -----// IR Dump After CSE (cse) //----- //
util.func public @add(%arg0: !hal.buffer_view, %arg1: !hal.buffer_view) -> !hal.buffer_view attributes {iree.abi.stub, iree.reflection = {iree.abi.declaration = "sync func @add(%input0: tensor<3x2xf32>, %input1: tensor<1x1xf32>) -> (%output0: tensor<3x2xf32>)"}} {
  %0 = hal.tensor.import %arg0 "input0" : !hal.buffer_view -> tensor<3x2xf32>
  %1 = hal.tensor.import %arg1 "input1" : !hal.buffer_view -> tensor<1x1xf32>
  %2 = flow.tensor.reshape %1 : tensor<1x1xf32> -> tensor<f32>
  %3 = flow.tensor.reshape %0 : tensor<3x2xf32> -> tensor<6xf32>
  %4 = flow.dispatch.workgroups(%3, %2) : (tensor<6xf32>, tensor<f32>) -> tensor<6xf32> =
      (%arg2: !flow.dispatch.tensor<readonly:tensor<6xf32>>, %arg3: !flow.dispatch.tensor<readonly:tensor<f32>>, %arg4: !flow.dispatch.tensor<writeonly:tensor<6xf32>>) {
    %7 = flow.dispatch.tensor.load %arg2, offsets = [0], sizes = [6], strides = [1] : !flow.dispatch.tensor<readonly:tensor<6xf32>> -> tensor<6xf32>
    %8 = flow.dispatch.tensor.load %arg3, offsets = [], sizes = [], strides = [] : !flow.dispatch.tensor<readonly:tensor<f32>> -> tensor<f32>
    %9 = tensor.empty() : tensor<6xf32>
    %10 = linalg.generic {indexing_maps = [affine_map<(d0) -> (d0)>, affine_map<(d0) -> ()>, affine_map<(d0) -> (d0)>], iterator_types = ["parallel"]} ins(%7, %8 : tensor<6xf32>, tensor<f32>) outs(%9 : tensor<6xf32>) {
    ^bb0(%in: f32, %in_0: f32, %out: f32):
      %11 = arith.addf %in, %in_0 : f32
      linalg.yield %11 : f32
    } -> tensor<6xf32>
    flow.dispatch.tensor.store %10, %arg4, offsets = [0], sizes = [6], strides = [1] : tensor<6xf32> -> !flow.dispatch.tensor<writeonly:tensor<6xf32>>
    flow.return
  } count() -> (index, index, index) {
    %x, %y, %z = flow.dispatch.workgroup_count_from_slice 
    flow.return %x, %y, %z : index, index, index
  }
  %5 = flow.tensor.reshape %4 : tensor<6xf32> -> tensor<3x2xf32>
  %6 = hal.tensor.export %5 "output0" : tensor<3x2xf32> -> !hal.buffer_view
  util.return %6 : !hal.buffer_view
}

// -----// IR Dump After InitializeEmptyTensorsPass (iree-flow-initialize-empty-tensors) //----- //
util.func public @add(%arg0: !hal.buffer_view, %arg1: !hal.buffer_view) -> !hal.buffer_view attributes {iree.abi.stub, iree.reflection = {iree.abi.declaration = "sync func @add(%input0: tensor<3x2xf32>, %input1: tensor<1x1xf32>) -> (%output0: tensor<3x2xf32>)"}} {
  %0 = hal.tensor.import %arg0 "input0" : !hal.buffer_view -> tensor<3x2xf32>
  %1 = hal.tensor.import %arg1 "input1" : !hal.buffer_view -> tensor<1x1xf32>
  %2 = flow.tensor.reshape %1 : tensor<1x1xf32> -> tensor<f32>
  %3 = flow.tensor.reshape %0 : tensor<3x2xf32> -> tensor<6xf32>
  %4 = flow.dispatch.workgroups(%3, %2) : (tensor<6xf32>, tensor<f32>) -> tensor<6xf32> =
      (%arg2: !flow.dispatch.tensor<readonly:tensor<6xf32>>, %arg3: !flow.dispatch.tensor<readonly:tensor<f32>>, %arg4: !flow.dispatch.tensor<writeonly:tensor<6xf32>>) {
    %7 = flow.dispatch.tensor.load %arg2, offsets = [0], sizes = [6], strides = [1] : !flow.dispatch.tensor<readonly:tensor<6xf32>> -> tensor<6xf32>
    %8 = flow.dispatch.tensor.load %arg3, offsets = [], sizes = [], strides = [] : !flow.dispatch.tensor<readonly:tensor<f32>> -> tensor<f32>
    %9 = tensor.empty() : tensor<6xf32>
    %10 = linalg.generic {indexing_maps = [affine_map<(d0) -> (d0)>, affine_map<(d0) -> ()>, affine_map<(d0) -> (d0)>], iterator_types = ["parallel"]} ins(%7, %8 : tensor<6xf32>, tensor<f32>) outs(%9 : tensor<6xf32>) {
    ^bb0(%in: f32, %in_0: f32, %out: f32):
      %11 = arith.addf %in, %in_0 : f32
      linalg.yield %11 : f32
    } -> tensor<6xf32>
    flow.dispatch.tensor.store %10, %arg4, offsets = [0], sizes = [6], strides = [1] : tensor<6xf32> -> !flow.dispatch.tensor<writeonly:tensor<6xf32>>
    flow.return
  } count() -> (index, index, index) {
    %x, %y, %z = flow.dispatch.workgroup_count_from_slice 
    flow.return %x, %y, %z : index, index, index
  }
  %5 = flow.tensor.reshape %4 : tensor<6xf32> -> tensor<3x2xf32>
  %6 = hal.tensor.export %5 "output0" : tensor<3x2xf32> -> !hal.buffer_view
  util.return %6 : !hal.buffer_view
}

// -----// IR Dump After OutlineDispatchExternsPass (iree-flow-outline-dispatch-externs) //----- //
#executable_target_embedded_elf_arm_64_ = #hal.executable.target<"llvm-cpu", "embedded-elf-arm_64", {cpu = "", cpu_features = "+reserve-x18", data_layout = "e-m:e-i8:8:32-i16:16:32-i64:64-i128:128-n32:64-S128-Fn32", native_vector_size = 16 : i64, target_triple = "aarch64-unknown-unknown-eabi-elf"}>
#map = affine_map<(d0) -> (d0)>
#map1 = affine_map<(d0) -> ()>
#device_target_local = #hal.device.target<"local", [#executable_target_embedded_elf_arm_64_]>
module attributes {hal.device.targets = [#device_target_local]} {
  util.func public @add(%arg0: !hal.buffer_view, %arg1: !hal.buffer_view) -> !hal.buffer_view attributes {iree.abi.stub, iree.reflection = {iree.abi.declaration = "sync func @add(%input0: tensor<3x2xf32>, %input1: tensor<1x1xf32>) -> (%output0: tensor<3x2xf32>)"}} {
    %0 = hal.tensor.import %arg0 "input0" : !hal.buffer_view -> tensor<3x2xf32>
    %1 = hal.tensor.import %arg1 "input1" : !hal.buffer_view -> tensor<1x1xf32>
    %2 = flow.tensor.reshape %1 : tensor<1x1xf32> -> tensor<f32>
    %3 = flow.tensor.reshape %0 : tensor<3x2xf32> -> tensor<6xf32>
    %4 = flow.dispatch.workgroups(%3, %2) : (tensor<6xf32>, tensor<f32>) -> tensor<6xf32> =
        (%arg2: !flow.dispatch.tensor<readonly:tensor<6xf32>>, %arg3: !flow.dispatch.tensor<readonly:tensor<f32>>, %arg4: !flow.dispatch.tensor<writeonly:tensor<6xf32>>) {
      %7 = flow.dispatch.tensor.load %arg2, offsets = [0], sizes = [6], strides = [1] : !flow.dispatch.tensor<readonly:tensor<6xf32>> -> tensor<6xf32>
      %8 = flow.dispatch.tensor.load %arg3, offsets = [], sizes = [], strides = [] : !flow.dispatch.tensor<readonly:tensor<f32>> -> tensor<f32>
      %9 = tensor.empty() : tensor<6xf32>
      %10 = linalg.generic {indexing_maps = [#map, #map1, #map], iterator_types = ["parallel"]} ins(%7, %8 : tensor<6xf32>, tensor<f32>) outs(%9 : tensor<6xf32>) {
      ^bb0(%in: f32, %in_0: f32, %out: f32):
        %11 = arith.addf %in, %in_0 : f32
        linalg.yield %11 : f32
      } -> tensor<6xf32>
      flow.dispatch.tensor.store %10, %arg4, offsets = [0], sizes = [6], strides = [1] : tensor<6xf32> -> !flow.dispatch.tensor<writeonly:tensor<6xf32>>
      flow.return
    } count() -> (index, index, index) {
      %x, %y, %z = flow.dispatch.workgroup_count_from_slice 
      flow.return %x, %y, %z : index, index, index
    }
    %5 = flow.tensor.reshape %4 : tensor<6xf32> -> tensor<3x2xf32>
    %6 = hal.tensor.export %5 "output0" : tensor<3x2xf32> -> !hal.buffer_view
    util.return %6 : !hal.buffer_view
  }
}


// -----// IR Dump After OutlineDispatchRegionsPass (iree-flow-outline-dispatch-regions) //----- //
#executable_target_embedded_elf_arm_64_ = #hal.executable.target<"llvm-cpu", "embedded-elf-arm_64", {cpu = "", cpu_features = "+reserve-x18", data_layout = "e-m:e-i8:8:32-i16:16:32-i64:64-i128:128-n32:64-S128-Fn32", native_vector_size = 16 : i64, target_triple = "aarch64-unknown-unknown-eabi-elf"}>
#map = affine_map<(d0) -> (d0)>
#map1 = affine_map<(d0) -> ()>
#device_target_local = #hal.device.target<"local", [#executable_target_embedded_elf_arm_64_]>
module attributes {hal.device.targets = [#device_target_local]} {
  flow.executable private @add_dispatch_0 {
    flow.executable.export public @add_dispatch_0 workgroups() -> (index, index, index) {
      %x, %y, %z = flow.dispatch.workgroup_count_from_slice 
      flow.return %x, %y, %z : index, index, index
    }
    builtin.module {
      func.func @add_dispatch_0(%arg0: !flow.dispatch.tensor<readonly:tensor<6xf32>>, %arg1: !flow.dispatch.tensor<readonly:tensor<f32>>, %arg2: !flow.dispatch.tensor<writeonly:tensor<6xf32>>) {
        %0 = flow.dispatch.tensor.load %arg0, offsets = [0], sizes = [6], strides = [1] : !flow.dispatch.tensor<readonly:tensor<6xf32>> -> tensor<6xf32>
        %1 = flow.dispatch.tensor.load %arg1, offsets = [], sizes = [], strides = [] : !flow.dispatch.tensor<readonly:tensor<f32>> -> tensor<f32>
        %2 = tensor.empty() : tensor<6xf32>
        %3 = linalg.generic {indexing_maps = [#map, #map1, #map], iterator_types = ["parallel"]} ins(%0, %1 : tensor<6xf32>, tensor<f32>) outs(%2 : tensor<6xf32>) {
        ^bb0(%in: f32, %in_0: f32, %out: f32):
          %4 = arith.addf %in, %in_0 : f32
          linalg.yield %4 : f32
        } -> tensor<6xf32>
        flow.dispatch.tensor.store %3, %arg2, offsets = [0], sizes = [6], strides = [1] : tensor<6xf32> -> !flow.dispatch.tensor<writeonly:tensor<6xf32>>
        return
      }
    }
  }
  util.func public @add(%arg0: !hal.buffer_view, %arg1: !hal.buffer_view) -> !hal.buffer_view attributes {iree.abi.stub, iree.reflection = {iree.abi.declaration = "sync func @add(%input0: tensor<3x2xf32>, %input1: tensor<1x1xf32>) -> (%output0: tensor<3x2xf32>)"}} {
    %0 = hal.tensor.import %arg0 "input0" : !hal.buffer_view -> tensor<3x2xf32>
    %1 = hal.tensor.import %arg1 "input1" : !hal.buffer_view -> tensor<1x1xf32>
    %2 = flow.tensor.reshape %1 : tensor<1x1xf32> -> tensor<f32>
    %3 = flow.tensor.reshape %0 : tensor<3x2xf32> -> tensor<6xf32>
    %4 = flow.dispatch @add_dispatch_0::@add_dispatch_0(%3, %2) : (tensor<6xf32>, tensor<f32>) -> tensor<6xf32>
    %5 = flow.tensor.reshape %4 : tensor<6xf32> -> tensor<3x2xf32>
    %6 = hal.tensor.export %5 "output0" : tensor<3x2xf32> -> !hal.buffer_view
    util.return %6 : !hal.buffer_view
  }
}


// -----// IR Dump After AnnotateDispatchesPass (iree-flow-annotate-dispatches) //----- //
#executable_target_embedded_elf_arm_64_ = #hal.executable.target<"llvm-cpu", "embedded-elf-arm_64", {cpu = "", cpu_features = "+reserve-x18", data_layout = "e-m:e-i8:8:32-i16:16:32-i64:64-i128:128-n32:64-S128-Fn32", native_vector_size = 16 : i64, target_triple = "aarch64-unknown-unknown-eabi-elf"}>
#map = affine_map<(d0) -> (d0)>
#map1 = affine_map<(d0) -> ()>
#device_target_local = #hal.device.target<"local", [#executable_target_embedded_elf_arm_64_]>
module attributes {hal.device.targets = [#device_target_local]} {
  flow.executable private @add_dispatch_0 {
    flow.executable.export public @add_dispatch_0_broadcast_6_f32 workgroups() -> (index, index, index) {
      %x, %y, %z = flow.dispatch.workgroup_count_from_slice 
      flow.return %x, %y, %z : index, index, index
    }
    builtin.module {
      func.func @add_dispatch_0_broadcast_6_f32(%arg0: !flow.dispatch.tensor<readonly:tensor<6xf32>>, %arg1: !flow.dispatch.tensor<readonly:tensor<f32>>, %arg2: !flow.dispatch.tensor<writeonly:tensor<6xf32>>) {
        %0 = flow.dispatch.tensor.load %arg0, offsets = [0], sizes = [6], strides = [1] : !flow.dispatch.tensor<readonly:tensor<6xf32>> -> tensor<6xf32>
        %1 = flow.dispatch.tensor.load %arg1, offsets = [], sizes = [], strides = [] : !flow.dispatch.tensor<readonly:tensor<f32>> -> tensor<f32>
        %2 = tensor.empty() : tensor<6xf32>
        %3 = linalg.generic {indexing_maps = [#map, #map1, #map], iterator_types = ["parallel"]} ins(%0, %1 : tensor<6xf32>, tensor<f32>) outs(%2 : tensor<6xf32>) {
        ^bb0(%in: f32, %in_0: f32, %out: f32):
          %4 = arith.addf %in, %in_0 : f32
          linalg.yield %4 : f32
        } -> tensor<6xf32>
        flow.dispatch.tensor.store %3, %arg2, offsets = [0], sizes = [6], strides = [1] : tensor<6xf32> -> !flow.dispatch.tensor<writeonly:tensor<6xf32>>
        return
      }
    }
  }
  util.func public @add(%arg0: !hal.buffer_view, %arg1: !hal.buffer_view) -> !hal.buffer_view attributes {iree.abi.stub, iree.reflection = {iree.abi.declaration = "sync func @add(%input0: tensor<3x2xf32>, %input1: tensor<1x1xf32>) -> (%output0: tensor<3x2xf32>)"}} {
    %0 = hal.tensor.import %arg0 "input0" : !hal.buffer_view -> tensor<3x2xf32>
    %1 = hal.tensor.import %arg1 "input1" : !hal.buffer_view -> tensor<1x1xf32>
    %2 = flow.tensor.reshape %1 : tensor<1x1xf32> -> tensor<f32>
    %3 = flow.tensor.reshape %0 : tensor<3x2xf32> -> tensor<6xf32>
    %4 = flow.dispatch @add_dispatch_0::@add_dispatch_0_broadcast_6_f32(%3, %2) : (tensor<6xf32>, tensor<f32>) -> tensor<6xf32>
    %5 = flow.tensor.reshape %4 : tensor<6xf32> -> tensor<3x2xf32>
    %6 = hal.tensor.export %5 "output0" : tensor<3x2xf32> -> !hal.buffer_view
    util.return %6 : !hal.buffer_view
  }
}


// -----// IR Dump After StripDebugOps (iree-util-strip-debug-ops) //----- //
flow.executable private @add_dispatch_0 {
  flow.executable.export public @add_dispatch_0_broadcast_6_f32 workgroups() -> (index, index, index) {
    %x, %y, %z = flow.dispatch.workgroup_count_from_slice 
    flow.return %x, %y, %z : index, index, index
  }
  builtin.module {
    func.func @add_dispatch_0_broadcast_6_f32(%arg0: !flow.dispatch.tensor<readonly:tensor<6xf32>>, %arg1: !flow.dispatch.tensor<readonly:tensor<f32>>, %arg2: !flow.dispatch.tensor<writeonly:tensor<6xf32>>) {
      %0 = flow.dispatch.tensor.load %arg0, offsets = [0], sizes = [6], strides = [1] : !flow.dispatch.tensor<readonly:tensor<6xf32>> -> tensor<6xf32>
      %1 = flow.dispatch.tensor.load %arg1, offsets = [], sizes = [], strides = [] : !flow.dispatch.tensor<readonly:tensor<f32>> -> tensor<f32>
      %2 = tensor.empty() : tensor<6xf32>
      %3 = linalg.generic {indexing_maps = [affine_map<(d0) -> (d0)>, affine_map<(d0) -> ()>, affine_map<(d0) -> (d0)>], iterator_types = ["parallel"]} ins(%0, %1 : tensor<6xf32>, tensor<f32>) outs(%2 : tensor<6xf32>) {
      ^bb0(%in: f32, %in_0: f32, %out: f32):
        %4 = arith.addf %in, %in_0 : f32
        linalg.yield %4 : f32
      } -> tensor<6xf32>
      flow.dispatch.tensor.store %3, %arg2, offsets = [0], sizes = [6], strides = [1] : tensor<6xf32> -> !flow.dispatch.tensor<writeonly:tensor<6xf32>>
      return
    }
  }
}

// -----// IR Dump After Canonicalizer (canonicalize) //----- //
util.func public @add(%arg0: !hal.buffer_view, %arg1: !hal.buffer_view) -> !hal.buffer_view attributes {iree.abi.stub, iree.reflection = {iree.abi.declaration = "sync func @add(%input0: tensor<3x2xf32>, %input1: tensor<1x1xf32>) -> (%output0: tensor<3x2xf32>)"}} {
  %0 = hal.tensor.import %arg0 "input0" : !hal.buffer_view -> tensor<3x2xf32>
  %1 = hal.tensor.import %arg1 "input1" : !hal.buffer_view -> tensor<1x1xf32>
  %2 = flow.tensor.reshape %1 : tensor<1x1xf32> -> tensor<f32>
  %3 = flow.tensor.reshape %0 : tensor<3x2xf32> -> tensor<6xf32>
  %4 = flow.dispatch @add_dispatch_0::@add_dispatch_0_broadcast_6_f32(%3, %2) : (tensor<6xf32>, tensor<f32>) -> tensor<6xf32>
  %5 = flow.tensor.reshape %4 : tensor<6xf32> -> tensor<3x2xf32>
  %6 = hal.tensor.export %5 "output0" : tensor<3x2xf32> -> !hal.buffer_view
  util.return %6 : !hal.buffer_view
}

// -----// IR Dump After DeduplicateExecutablesPass (iree-flow-deduplicate-executables) //----- //
#executable_target_embedded_elf_arm_64_ = #hal.executable.target<"llvm-cpu", "embedded-elf-arm_64", {cpu = "", cpu_features = "+reserve-x18", data_layout = "e-m:e-i8:8:32-i16:16:32-i64:64-i128:128-n32:64-S128-Fn32", native_vector_size = 16 : i64, target_triple = "aarch64-unknown-unknown-eabi-elf"}>
#map = affine_map<(d0) -> (d0)>
#map1 = affine_map<(d0) -> ()>
#device_target_local = #hal.device.target<"local", [#executable_target_embedded_elf_arm_64_]>
module attributes {hal.device.targets = [#device_target_local]} {
  flow.executable private @add_dispatch_0 {
    flow.executable.export public @add_dispatch_0_broadcast_6_f32 workgroups() -> (index, index, index) {
      %x, %y, %z = flow.dispatch.workgroup_count_from_slice 
      flow.return %x, %y, %z : index, index, index
    }
    builtin.module {
      func.func @add_dispatch_0_broadcast_6_f32(%arg0: !flow.dispatch.tensor<readonly:tensor<6xf32>>, %arg1: !flow.dispatch.tensor<readonly:tensor<f32>>, %arg2: !flow.dispatch.tensor<writeonly:tensor<6xf32>>) {
        %0 = flow.dispatch.tensor.load %arg0, offsets = [0], sizes = [6], strides = [1] : !flow.dispatch.tensor<readonly:tensor<6xf32>> -> tensor<6xf32>
        %1 = flow.dispatch.tensor.load %arg1, offsets = [], sizes = [], strides = [] : !flow.dispatch.tensor<readonly:tensor<f32>> -> tensor<f32>
        %2 = tensor.empty() : tensor<6xf32>
        %3 = linalg.generic {indexing_maps = [#map, #map1, #map], iterator_types = ["parallel"]} ins(%0, %1 : tensor<6xf32>, tensor<f32>) outs(%2 : tensor<6xf32>) {
        ^bb0(%in: f32, %in_0: f32, %out: f32):
          %4 = arith.addf %in, %in_0 : f32
          linalg.yield %4 : f32
        } -> tensor<6xf32>
        flow.dispatch.tensor.store %3, %arg2, offsets = [0], sizes = [6], strides = [1] : tensor<6xf32> -> !flow.dispatch.tensor<writeonly:tensor<6xf32>>
        return
      }
    }
  }
  util.func public @add(%arg0: !hal.buffer_view, %arg1: !hal.buffer_view) -> !hal.buffer_view attributes {iree.abi.stub, iree.reflection = {iree.abi.declaration = "sync func @add(%input0: tensor<3x2xf32>, %input1: tensor<1x1xf32>) -> (%output0: tensor<3x2xf32>)"}} {
    %0 = hal.tensor.import %arg0 "input0" : !hal.buffer_view -> tensor<3x2xf32>
    %1 = hal.tensor.import %arg1 "input1" : !hal.buffer_view -> tensor<1x1xf32>
    %2 = flow.tensor.reshape %1 : tensor<1x1xf32> -> tensor<f32>
…
    %_utf8_embedded_elf_arm_64_48330F48BB3EF6E0 = vm.const.ref.rodata @_utf8_embedded_elf_arm_64_48330F48BB3EF6E0 : !vm.buffer
    %0:2 = vm.call @hal.device.query.i64(%ref, %_utf8_hal_executable_format_EAB228F999C2D3A1, %_utf8_embedded_elf_arm_64_48330F48BB3EF6E0) {nosideeffects} : (!vm.ref<!hal.device>, !vm.buffer, !vm.buffer) -> (i32, i64)
    %nz = vm.cmp.nz.i64 %0#1 : i64
    %1 = vm.select.i32 %0#0, %nz, %zero_0 : i32
    %ref_1 = vm.call.variadic @hal.descriptor_set_layout.create(%ref, %zero_0, [(%zero_0, %c7, %c1), (%c1, %c7, %c1), (%c2, %c7, %zero_0)]) {nosideeffects} : (!vm.ref<!hal.device>, i32, tuple<i32, i32, i32> ...) -> !vm.ref<!hal.descriptor_set_layout>
    %ref_2 = vm.call.variadic @hal.pipeline_layout.create(%ref, %zero_0, [%ref_1]) {nosideeffects} : (!vm.ref<!hal.device>, i32, !vm.ref<!hal.descriptor_set_layout> ...) -> !vm.ref<!hal.pipeline_layout>
    %2 = vm.select.i64 %1, %zero, %c-1 : i64
    %eq = vm.cmp.eq.i64 %2, %zero : i64
    vm.global.store.i32 %1, @_device_query_0 : i32
    vm.global.store.ref %ref_2, @_pipeline_layout_0 : !vm.ref<!hal.pipeline_layout>
    vm.cond_br %eq, ^bb1, ^bb2
  ^bb1:  // pred: ^bb0
    %_pipeline_layout_0 = vm.global.load.ref @_pipeline_layout_0 : !vm.ref<!hal.pipeline_layout>
    %add_dispatch_0_embedded_elf_arm_64 = vm.const.ref.rodata @add_dispatch_0_embedded_elf_arm_64 : !vm.buffer
    %ref_3 = vm.call.variadic @hal.executable.create(%ref, %_utf8_embedded_elf_arm_64_48330F48BB3EF6E0, %add_dispatch_0_embedded_elf_arm_64, %null, [%_pipeline_layout_0]) {nosideeffects} : (!vm.ref<!hal.device>, !vm.buffer, !vm.buffer, !vm.buffer, !vm.ref<!hal.pipeline_layout> ...) -> !vm.ref<!hal.executable>
    vm.global.store.ref %ref_3, @_executable_add_dispatch_0 : !vm.ref<!hal.executable>
    vm.return
  ^bb2:  // pred: ^bb0
    vm.fail %c14, "none of the executable binaries in the module are supported by the runtime"
  }
}

// -----// IR Dump After CSE (cse) //----- //
vm.module public @module {
  vm.global.i32 private mutable @_device_query_0 : i32
  vm.global.ref private mutable @_pipeline_layout_0 : !vm.ref<!hal.pipeline_layout>
  vm.global.ref private mutable @_executable_add_dispatch_0 : !vm.ref<!hal.executable>
  vm.rodata private @add_dispatch_0_embedded_elf_arm_64 {alignment = 16 : i64, mime_type = "application/x-elf"} dense<"…"> : vector<3472xi8>
  vm.rodata private @_utf8_hal_executable_format_EAB228F999C2D3A1 {alignment = 1 : i64} "hal.executable.format"
  vm.rodata private @_utf8_embedded_elf_arm_64_48330F48BB3EF6E0 {alignment = 1 : i64} "embedded-elf-arm_64"
  vm.import private @hal.buffer.assert(%buffer : !vm.ref<!hal.buffer>, %message : !vm.buffer, %allocator : !vm.ref<!hal.allocator>, %minimum_length : i64, %memory_types : i32, %buffer_usage : i32)
  vm.import private @hal.buffer_view.create(%buffer : !vm.ref<!hal.buffer>, %source_offset : i64, %source_length : i64, %element_type : i32, %encoding_type : i32, %shape : i64 ...) -> !vm.ref<!hal.buffer_view> attributes {nosideeffects}
  vm.import private @hal.buffer_view.assert(%buffer_view : !vm.ref<!hal.buffer_view>, %message : !vm.buffer, %element_type : i32, %encoding_type : i32, %shape : i64 ...)
  vm.import private @hal.buffer_view.buffer(%buffer_view : !vm.ref<!hal.buffer_view>) -> !vm.ref<!hal.buffer> attributes {nosideeffects}
  vm.import private @hal.command_buffer.create(%device : !vm.ref<!hal.device>, %modes : i32, %command_categories : i32, %binding_capacity : i32) -> !vm.ref<!hal.command_buffer>
  vm.import private @hal.command_buffer.finalize(%command_buffer : !vm.ref<!hal.command_buffer>)
  vm.import private @hal.command_buffer.execution_barrier(%command_buffer : !vm.ref<!hal.command_buffer>, %source_stage_mask : i32, %target_stage_mask : i32, %flags : i32)
  vm.import private @hal.command_buffer.push_descriptor_set(%command_buffer : !vm.ref<!hal.command_buffer>, %pipeline_layout : !vm.ref<!hal.pipeline_layout>, %set : i32, %bindings : tuple<i32, i32, !vm.ref<!hal.buffer>, i64, i64> ...)
  vm.import private @hal.command_buffer.dispatch(%command_buffer : !vm.ref<!hal.command_buffer>, %executable : !vm.ref<!hal.executable>, %entry_point : i32, %workgroup_x : i32, %workgroup_y : i32, %workgroup_z : i32)
  vm.import private @hal.descriptor_set_layout.create(%device : !vm.ref<!hal.device>, %flags : i32, %bindings : tuple<i32, i32, i32> ...) -> !vm.ref<!hal.descriptor_set_layout> attributes {nosideeffects}
  vm.import private @hal.device.allocator(%device : !vm.ref<!hal.device>) -> !vm.ref<!hal.allocator> attributes {nosideeffects}
  vm.import private @hal.device.query.i64(%device : !vm.ref<!hal.device>, %category : !vm.buffer, %key : !vm.buffer) -> (i32, i64) attributes {nosideeffects}
  vm.import private @hal.device.queue.alloca(%device : !vm.ref<!hal.device>, %queue_affinity : i64, %wait_fence : !vm.ref<!hal.fence>, %signal_fence : !vm.ref<!hal.fence>, %pool : i32, %memory_types : i32, %buffer_usage : i32, %allocation_size : i64) -> !vm.ref<!hal.buffer>
  vm.import private @hal.device.queue.execute(%device : !vm.ref<!hal.device>, %queue_affinity : i64, %wait_fence : !vm.ref<!hal.fence>, %signal_fence : !vm.ref<!hal.fence>, %command_buffers : !vm.ref<!hal.command_buffer> ...)
  vm.import private @hal.devices.get(%index : i32) -> !vm.ref<!hal.device> attributes {minimum_version = 2 : i32, nosideeffects}
  vm.import private @hal.executable.create(%device : !vm.ref<!hal.device>, %executable_format : !vm.buffer, %executable_data : !vm.buffer, %constants : !vm.buffer, %pipeline_layouts : !vm.ref<!hal.pipeline_layout> ...) -> !vm.ref<!hal.executable> attributes {nosideeffects}
  vm.import private @hal.fence.create(%device : !vm.ref<!hal.device>, %flags : i32) -> !vm.ref<!hal.fence>
  vm.import private @hal.fence.await(%timeout_millis : i32, %fences : !vm.ref<!hal.fence> ...) -> i32 attributes {vm.yield}
  vm.import private @hal.pipeline_layout.create(%device : !vm.ref<!hal.device>, %push_constants : i32, %set_layouts : !vm.ref<!hal.descriptor_set_layout> ...) -> !vm.ref<!hal.pipeline_layout> attributes {nosideeffects}
  vm.rodata private @_utf8_input0_F74E046E5FFA3735 {alignment = 1 : i64} "input0"
  vm.rodata private @_utf8_tensor_3C6209B4FD120BDC {alignment = 1 : i64} "tensor"
  vm.rodata private @_utf8_input1_E2E5222C371315B9 {alignment = 1 : i64} "input1"
  vm.func private @add(%arg0: !vm.ref<!hal.buffer_view>, %arg1: !vm.ref<!hal.buffer_view>) -> !vm.ref<!hal.buffer_view> attributes {iree.reflection = {iree.abi.declaration = "sync func @add(%input0: tensor<3x2xf32>, %input1: tensor<1x1xf32>) -> (%output0: tensor<3x2xf32>)"}} {
    %c13 = vm.const.i32 13
    %c28 = vm.const.i32 28
    %c2 = vm.const.i32 2
    %c3 = vm.const.i32 3
    %c48 = vm.const.i32 48
    %null = vm.const.ref.zero : !vm.ref<!hal.fence>
    %c3075 = vm.const.i32 3075
    %c16 = vm.const.i32 16
    %zero = vm.const.i32.zero
    %c1 = vm.const.i32 1
    %c553648160 = vm.const.i32 553648160
    %c3_0 = vm.const.i64 3
    %c2_1 = vm.const.i64 2
    %c1_2 = vm.const.i64 1
    %zero_3 = vm.const.i64.zero
    %c24 = vm.const.i64 24
    %c4 = vm.const.i64 4
    %c-1 = vm.const.i64 -1
    %c-1_4 = vm.const.i32 -1
    %_device_query_0 = vm.global.load.i32 @_device_query_0 : i32
    %_pipeline_layout_0 = vm.global.load.ref @_pipeline_layout_0 : !vm.ref<!hal.pipeline_layout>
    %_executable_add_dispatch_0 = vm.global.load.ref @_executable_add_dispatch_0 : !vm.ref<!hal.executable>
    %_utf8_input0_F74E046E5FFA3735 = vm.const.ref.rodata @_utf8_input0_F74E046E5FFA3735 : !vm.buffer
    vm.call.variadic @hal.buffer_view.assert(%arg0, %_utf8_input0_F74E046E5FFA3735, %c553648160, %c1, [%c3_0, %c2_1]) : (!vm.ref<!hal.buffer_view>, !vm.buffer, i32, i32, i64 ...)
    %ref = vm.call @hal.buffer_view.buffer(%arg0) {nosideeffects} : (!vm.ref<!hal.buffer_view>) -> !vm.ref<!hal.buffer>
    %ref_5 = vm.call @hal.devices.get(%zero) {nosideeffects} : (i32) -> !vm.ref<!hal.device>
    %ref_6 = vm.call @hal.device.allocator(%ref_5) {nosideeffects} : (!vm.ref<!hal.device>) -> !vm.ref<!hal.allocator>
    %_utf8_tensor_3C6209B4FD120BDC = vm.const.ref.rodata @_utf8_tensor_3C6209B4FD120BDC : !vm.buffer
    vm.call @hal.buffer.assert(%ref, %_utf8_tensor_3C6209B4FD120BDC, %ref_6, %c24, %c16, %c3075) : (!vm.ref<!hal.buffer>, !vm.buffer, !vm.ref<!hal.allocator>, i64, i32, i32) -> ()
    %_utf8_input1_E2E5222C371315B9 = vm.const.ref.rodata @_utf8_input1_E2E5222C371315B9 : !vm.buffer
    vm.call.variadic @hal.buffer_view.assert(%arg1, %_utf8_input1_E2E5222C371315B9, %c553648160, %c1, [%c1_2, %c1_2]) : (!vm.ref<!hal.buffer_view>, !vm.buffer, i32, i32, i64 ...)
    %ref_7 = vm.call @hal.buffer_view.buffer(%arg1) {nosideeffects} : (!vm.ref<!hal.buffer_view>) -> !vm.ref<!hal.buffer>
    vm.call @hal.buffer.assert(%ref_7, %_utf8_tensor_3C6209B4FD120BDC, %ref_6, %c4, %c16, %c3075) : (!vm.ref<!hal.buffer>, !vm.buffer, !vm.ref<!hal.allocator>, i64, i32, i32) -> ()
    %ref_8 = vm.call @hal.fence.create(%ref_5, %zero) : (!vm.ref<!hal.device>, i32) -> !vm.ref<!hal.fence>
    %ref_9 = vm.call @hal.device.queue.alloca(%ref_5, %c-1, %null, %ref_8, %zero, %c48, %c3075, %c24) : (!vm.ref<!hal.device>, i64, !vm.ref<!hal.fence>, !vm.ref<!hal.fence>, i32, i32, i32, i64) -> !vm.ref<!hal.buffer>
    %ref_10 = vm.call @hal.command_buffer.create(%ref_5, %c1, %c3, %zero) : (!vm.ref<!hal.device>, i32, i32, i32) -> !vm.ref<!hal.command_buffer>
    %0 = vm.select.i64 %_device_query_0, %zero_3, %c-1 : i64
    %eq = vm.cmp.eq.i64 %0, %zero_3 : i64
    vm.cond_br %eq, ^bb1, ^bb2
  ^bb1:  // pred: ^bb0
    vm.call.variadic @hal.command_buffer.push_descriptor_set(%ref_10, %_pipeline_layout_0, %zero, [(%zero, %zero, %ref, %zero_3, %c24), (%c1, %zero, %ref_7, %zero_3, %c4), (%c2, %zero, %ref_9, %zero_3, %c24)]) : (!vm.ref<!hal.command_buffer>, !vm.ref<!hal.pipeline_layout>, i32, tuple<i32, i32, !vm.ref<!hal.buffer>, i64, i64> ...)
    vm.call @hal.command_buffer.dispatch(%ref_10, %_executable_add_dispatch_0, %zero, %c1, %c1, %c1) : (!vm.ref<!hal.command_buffer>, !vm.ref<!hal.executable>, i32, i32, i32, i32) -> ()
    vm.br ^bb2
  ^bb2:  // 2 preds: ^bb0, ^bb1
    vm.call @hal.command_buffer.execution_barrier(%ref_10, %c28, %c13, %zero) : (!vm.ref<!hal.command_buffer>, i32, i32, i32) -> ()
    vm.call @hal.command_buffer.finalize(%ref_10) : (!vm.ref<!hal.command_buffer>) -> ()
    %ref_11 = vm.call @hal.fence.create(%ref_5, %zero) : (!vm.ref<!hal.device>, i32) -> !vm.ref<!hal.fence>
    vm.call.variadic @hal.device.queue.execute(%ref_5, %c-1, %ref_8, %ref_11, [%ref_10]) : (!vm.ref<!hal.device>, i64, !vm.ref<!hal.fence>, !vm.ref<!hal.fence>, !vm.ref<!hal.command_buffer> ...)
    %1 = vm.call.variadic @hal.fence.await(%c-1_4, [%ref_11]) : (i32, !vm.ref<!hal.fence> ...) -> i32
    vm.cond_br %1, ^bb4, ^bb3
  ^bb3:  // pred: ^bb2
    %ref_12 = vm.call.variadic @hal.buffer_view.create(%ref_9, %zero_3, %c24, %c553648160, %c1, [%c3_0, %c2_1]) {nosideeffects} : (!vm.ref<!hal.buffer>, i64, i64, i32, i32, i64 ...) -> !vm.ref<!hal.buffer_view>
    vm.return %ref_12 : !vm.ref<!hal.buffer_view>
  ^bb4:  // pred: ^bb2
    vm.fail %1, "failed to wait on timepoint"
  }
  vm.export @add attributes {iree.abi.stub, iree.reflection = {iree.abi.declaration = "sync func @add(%input0: tensor<3x2xf32>, %input1: tensor<1x1xf32>) -> (%output0: tensor<3x2xf32>)"}}
  vm.export @__init
  vm.func private @__init() {
    %null = vm.const.ref.zero : !vm.buffer
    %c2 = vm.const.i32 2
    %c7 = vm.const.i32 7
    %c1 = vm.const.i32 1
    %c14 = vm.const.i32 14
    %c-1 = vm.const.i64 -1
    %zero = vm.const.i64.zero
    %zero_0 = vm.const.i32.zero
    %ref = vm.call @hal.devices.get(%zero_0) {nosideeffects} : (i32) -> !vm.ref<!hal.device>
    %_utf8_hal_executable_format_EAB228F999C2D3A1 = vm.const.ref.rodata @_utf8_hal_executable_format_EAB228F999C2D3A1 : !vm.buffer
    %_utf8_embedded_elf_arm_64_48330F48BB3EF6E0 = vm.const.ref.rodata @_utf8_embedded_elf_arm_64_48330F48BB3EF6E0 : !vm.buffer
    %0:2 = vm.call @hal.device.query.i64(%ref, %_utf8_hal_executable_format_EAB228F999C2D3A1, %_utf8_embedded_elf_arm_64_48330F48BB3EF6E0) {nosideeffects} : (!vm.ref<!hal.device>, !vm.buffer, !vm.buffer) -> (i32, i64)
    %nz = vm.cmp.nz.i64 %0#1 : i64
    %1 = vm.select.i32 %0#0, %nz, %zero_0 : i32
    %ref_1 = vm.call.variadic @hal.descriptor_set_layout.create(%ref, %zero_0, [(%zero_0, %c7, %c1), (%c1, %c7, %c1), (%c2, %c7, %zero_0)]) {nosideeffects} : (!vm.ref<!hal.device>, i32, tuple<i32, i32, i32> ...) -> !vm.ref<!hal.descriptor_set_layout>
    %ref_2 = vm.call.variadic @hal.pipeline_layout.create(%ref, %zero_0, [%ref_1]) {nosideeffects} : (!vm.ref<!hal.device>, i32, !vm.ref<!hal.descriptor_set_layout> ...) -> !vm.ref<!hal.pipeline_layout>
    %2 = vm.select.i64 %1, %zero, %c-1 : i64
    %eq = vm.cmp.eq.i64 %2, %zero : i64
    vm.global.store.i32 %1, @_device_query_0 : i32
    vm.global.store.ref %ref_2, @_pipeline_layout_0 : !vm.ref<!hal.pipeline_layout>
    vm.cond_br %eq, ^bb1, ^bb2
  ^bb1:  // pred: ^bb0
    %_pipeline_layout_0 = vm.global.load.ref @_pipeline_layout_0 : !vm.ref<!hal.pipeline_layout>
    %add_dispatch_0_embedded_elf_arm_64 = vm.const.ref.rodata @add_dispatch_0_embedded_elf_arm_64 : !vm.buffer
    %ref_3 = vm.call.variadic @hal.executable.create(%ref, %_utf8_embedded_elf_arm_64_48330F48BB3EF6E0, %add_dispatch_0_embedded_elf_arm_64, %null, [%_pipeline_layout_0]) {nosideeffects} : (!vm.ref<!hal.device>, !vm.buffer, !vm.buffer, !vm.buffer, !vm.ref<!hal.pipeline_layout> ...) -> !vm.ref<!hal.executable>
    vm.global.store.ref %ref_3, @_executable_add_dispatch_0 : !vm.ref<!hal.executable>
    vm.return
  ^bb2:  // pred: ^bb0
    vm.fail %c14, "none of the executable binaries in the module are supported by the runtime"
  }
}

// -----// IR Dump After Canonicalizer (canonicalize) //----- //
vm.module public @module {
  vm.global.i32 private mutable @_device_query_0 : i32
  vm.global.ref private mutable @_pipeline_layout_0 : !vm.ref<!hal.pipeline_layout>
  vm.global.ref private mutable @_executable_add_dispatch_0 : !vm.ref<!hal.executable>
  vm.rodata private @add_dispatch_0_embedded_elf_arm_64 {alignment = 16 : i64, mime_type = "application/x-elf"} dense<"…"> : vector<3472xi8>
  vm.rodata private @_utf8_hal_executable_format_EAB228F999C2D3A1 {alignment = 1 : i64} "hal.executable.format"
  vm.rodata private @_utf8_embedded_elf_arm_64_48330F48BB3EF6E0 {alignment = 1 : i64} "embedded-elf-arm_64"
  vm.import private @hal.buffer.assert(%buffer : !vm.ref<!hal.buffer>, %message : !vm.buffer, %allocator : !vm.ref<!hal.allocator>, %minimum_length : i64, %memory_types : i32, %buffer_usage : i32)
  vm.import private @hal.buffer_view.create(%buffer : !vm.ref<!hal.buffer>, %source_offset : i64, %source_length : i64, %element_type : i32, %encoding_type : i32, %shape : i64 ...) -> !vm.ref<!hal.buffer_view> attributes {nosideeffects}
  vm.import private @hal.buffer_view.assert(%buffer_view : !vm.ref<!hal.buffer_view>, %message : !vm.buffer, %element_type : i32, %encoding_type : i32, %shape : i64 ...)
  vm.import private @hal.buffer_view.buffer(%buffer_view : !vm.ref<!hal.buffer_view>) -> !vm.ref<!hal.buffer> attributes {nosideeffects}
  vm.import private @hal.command_buffer.create(%device : !vm.ref<!hal.device>, %modes : i32, %command_categories : i32, %binding_capacity : i32) -> !vm.ref<!hal.command_buffer>
  vm.import private @hal.command_buffer.finalize(%command_buffer : !vm.ref<!hal.command_buffer>)
  vm.import private @hal.command_buffer.execution_barrier(%command_buffer : !vm.ref<!hal.command_buffer>, %source_stage_mask : i32, %target_stage_mask : i32, %flags : i32)
  vm.import private @hal.command_buffer.push_descriptor_set(%command_buffer : !vm.ref<!hal.command_buffer>, %pipeline_layout : !vm.ref<!hal.pipeline_layout>, %set : i32, %bindings : tuple<i32, i32, !vm.ref<!hal.buffer>, i64, i64> ...)
  vm.import private @hal.command_buffer.dispatch(%command_buffer : !vm.ref<!hal.command_buffer>, %executable : !vm.ref<!hal.executable>, %entry_point : i32, %workgroup_x : i32, %workgroup_y : i32, %workgroup_z : i32)
  vm.import private @hal.descriptor_set_layout.create(%device : !vm.ref<!hal.device>, %flags : i32, %bindings : tuple<i32, i32, i32> ...) -> !vm.ref<!hal.descriptor_set_layout> attributes {nosideeffects}
  vm.import private @hal.device.allocator(%device : !vm.ref<!hal.device>) -> !vm.ref<!hal.allocator> attributes {nosideeffects}
  vm.import private @hal.device.query.i64(%device : !vm.ref<!hal.device>, %category : !vm.buffer, %key : !vm.buffer) -> (i32, i64) attributes {nosideeffects}
  vm.import private @hal.device.queue.alloca(%device : !vm.ref<!hal.device>, %queue_affinity : i64, %wait_fence : !vm.ref<!hal.fence>, %signal_fence : !vm.ref<!hal.fence>, %pool : i32, %memory_types : i32, %buffer_usage : i32, %allocation_size : i64) -> !vm.ref<!hal.buffer>
  vm.import private @hal.device.queue.execute(%device : !vm.ref<!hal.device>, %queue_affinity : i64, %wait_fence : !vm.ref<!hal.fence>, %signal_fence : !vm.ref<!hal.fence>, %command_buffers : !vm.ref<!hal.command_buffer> ...)
  vm.import private @hal.devices.get(%index : i32) -> !vm.ref<!hal.device> attributes {minimum_version = 2 : i32, nosideeffects}
  vm.import private @hal.executable.create(%device : !vm.ref<!hal.device>, %executable_format : !vm.buffer, %executable_data : !vm.buffer, %constants : !vm.buffer, %pipeline_layouts : !vm.ref<!hal.pipeline_layout> ...) -> !vm.ref<!hal.executable> attributes {nosideeffects}
  vm.import private @hal.fence.create(%device : !vm.ref<!hal.device>, %flags : i32) -> !vm.ref<!hal.fence>
  vm.import private @hal.fence.await(%timeout_millis : i32, %fences : !vm.ref<!hal.fence> ...) -> i32 attributes {vm.yield}
  vm.import private @hal.pipeline_layout.create(%device : !vm.ref<!hal.device>, %push_constants : i32, %set_layouts : !vm.ref<!hal.descriptor_set_layout> ...) -> !vm.ref<!hal.pipeline_layout> attributes {nosideeffects}
  vm.rodata private @_utf8_input0_F74E046E5FFA3735 {alignment = 1 : i64} "input0"
  vm.rodata private @_utf8_tensor_3C6209B4FD120BDC {alignment = 1 : i64} "tensor"
  vm.rodata private @_utf8_input1_E2E5222C371315B9 {alignment = 1 : i64} "input1"
  vm.func private @add(%arg0: !vm.ref<!hal.buffer_view>, %arg1: !vm.ref<!hal.buffer_view>) -> !vm.ref<!hal.buffer_view> attributes {iree.reflection = {iree.abi.declaration = "sync func @add(%input0: tensor<3x2xf32>, %input1: tensor<1x1xf32>) -> (%output0: tensor<3x2xf32>)"}} {
    %c13 = vm.const.i32 13
    %c28 = vm.const.i32 28
    %c2 = vm.const.i32 2
    %c3 = vm.const.i32 3
    %c48 = vm.const.i32 48
    %null = vm.const.ref.zero : !vm.ref<!hal.fence>
    %c3075 = vm.const.i32 3075
    %c16 = vm.const.i32 16
    %zero = vm.const.i32.zero
    %c1 = vm.const.i32 1
    %c553648160 = vm.const.i32 553648160
    %c3_0 = vm.const.i64 3
    %c2_1 = vm.const.i64 2
    %c1_2 = vm.const.i64 1
    %zero_3 = vm.const.i64.zero
    %c24 = vm.const.i64 24
    %c4 = vm.const.i64 4
    %c-1 = vm.const.i64 -1
    %c-1_4 = vm.const.i32 -1
    %_device_query_0 = vm.global.load.i32 @_device_query_0 : i32
    %_pipeline_layout_0 = vm.global.load.ref @_pipeline_layout_0 : !vm.ref<!hal.pipeline_layout>
    %_executable_add_dispatch_0 = vm.global.load.ref @_executable_add_dispatch_0 : !vm.ref<!hal.executable>
    %_utf8_input0_F74E046E5FFA3735 = vm.const.ref.rodata @_utf8_input0_F74E046E5FFA3735 : !vm.buffer
    vm.call.variadic @hal.buffer_view.assert(%arg0, %_utf8_input0_F74E046E5FFA3735, %c553648160, %c1, [%c3_0, %c2_1]) : (!vm.ref<!hal.buffer_view>, !vm.buffer, i32, i32, i64 ...)
    %ref = vm.call @hal.buffer_view.buffer(%arg0) {nosideeffects} : (!vm.ref<!hal.buffer_view>) -> !vm.ref<!hal.buffer>
    %ref_5 = vm.call @hal.devices.get(%zero) {nosideeffects} : (i32) -> !vm.ref<!hal.device>
    %ref_6 = vm.call @hal.device.allocator(%ref_5) {nosideeffects} : (!vm.ref<!hal.device>) -> !vm.ref<!hal.allocator>
    %_utf8_tensor_3C6209B4FD120BDC = vm.const.ref.rodata @_utf8_tensor_3C6209B4FD120BDC : !vm.buffer
    vm.call @hal.buffer.assert(%ref, %_utf8_tensor_3C6209B4FD120BDC, %ref_6, %c24, %c16, %c3075) : (!vm.ref<!hal.buffer>, !vm.buffer, !vm.ref<!hal.allocator>, i64, i32, i32) -> ()
    %_utf8_input1_E2E5222C371315B9 = vm.const.ref.rodata @_utf8_input1_E2E5222C371315B9 : !vm.buffer
    vm.call.variadic @hal.buffer_view.assert(%arg1, %_utf8_input1_E2E5222C371315B9, %c553648160, %c1, [%c1_2, %c1_2]) : (!vm.ref<!hal.buffer_view>, !vm.buffer, i32, i32, i64 ...)
    %ref_7 = vm.call @hal.buffer_view.buffer(%arg1) {nosideeffects} : (!vm.ref<!hal.buffer_view>) -> !vm.ref<!hal.buffer>
    vm.call @hal.buffer.assert(%ref_7, %_utf8_tensor_3C6209B4FD120BDC, %ref_6, %c4, %c16, %c3075) : (!vm.ref<!hal.buffer>, !vm.buffer, !vm.ref<!hal.allocator>, i64, i32, i32) -> ()
    %ref_8 = vm.call @hal.fence.create(%ref_5, %zero) : (!vm.ref<!hal.device>, i32) -> !vm.ref<!hal.fence>
    %ref_9 = vm.call @hal.device.queue.alloca(%ref_5, %c-1, %null, %ref_8, %zero, %c48, %c3075, %c24) : (!vm.ref<!hal.device>, i64, !vm.ref<!hal.fence>, !vm.ref<!hal.fence>, i32, i32, i32, i64) -> !vm.ref<!hal.buffer>
    %ref_10 = vm.call @hal.command_buffer.create(%ref_5, %c1, %c3, %zero) : (!vm.ref<!hal.device>, i32, i32, i32) -> !vm.ref<!hal.command_buffer>
    %0 = vm.select.i64 %_device_query_0, %zero_3, %c-1 : i64
    %eq = vm.cmp.eq.i64 %0, %zero_3 : i64
    vm.cond_br %eq, ^bb1, ^bb2
  ^bb1:  // pred: ^bb0
    vm.call.variadic @hal.command_buffer.push_descriptor_set(%ref_10, %_pipeline_layout_0, %zero, [(%zero, %zero, %ref, %zero_3, %c24), (%c1, %zero, %ref_7, %zero_3, %c4), (%c2, %zero, %ref_9, %zero_3, %c24)]) : (!vm.ref<!hal.command_buffer>, !vm.ref<!hal.pipeline_layout>, i32, tuple<i32, i32, !vm.ref<!hal.buffer>, i64, i64> ...)
    vm.call @hal.command_buffer.dispatch(%ref_10, %_executable_add_dispatch_0, %zero, %c1, %c1, %c1) : (!vm.ref<!hal.command_buffer>, !vm.ref<!hal.executable>, i32, i32, i32, i32) -> ()
    vm.br ^bb2
  ^bb2:  // 2 preds: ^bb0, ^bb1
    vm.call @hal.command_buffer.execution_barrier(%ref_10, %c28, %c13, %zero) : (!vm.ref<!hal.command_buffer>, i32, i32, i32) -> ()
    vm.call @hal.command_buffer.finalize(%ref_10) : (!vm.ref<!hal.command_buffer>) -> ()
    %ref_11 = vm.call @hal.fence.create(%ref_5, %zero) : (!vm.ref<!hal.device>, i32) -> !vm.ref<!hal.fence>
    vm.call.variadic @hal.device.queue.execute(%ref_5, %c-1, %ref_8, %ref_11, [%ref_10]) : (!vm.ref<!hal.device>, i64, !vm.ref<!hal.fence>, !vm.ref<!hal.fence>, !vm.ref<!hal.command_buffer> ...)
    %1 = vm.call.variadic @hal.fence.await(%c-1_4, [%ref_11]) : (i32, !vm.ref<!hal.fence> ...) -> i32
    vm.cond_br %1, ^bb4, ^bb3
  ^bb3:  // pred: ^bb2
    %ref_12 = vm.call.variadic @hal.buffer_view.create(%ref_9, %zero_3, %c24, %c553648160, %c1, [%c3_0, %c2_1]) {nosideeffects} : (!vm.ref<!hal.buffer>, i64, i64, i32, i32, i64 ...) -> !vm.ref<!hal.buffer_view>
    vm.return %ref_12 : !vm.ref<!hal.buffer_view>
  ^bb4:  // pred: ^bb2
    vm.fail %1, "failed to wait on timepoint"
  }
  vm.export @add attributes {iree.abi.stub, iree.reflection = {iree.abi.declaration = "sync func @add(%input0: tensor<3x2xf32>, %input1: tensor<1x1xf32>) -> (%output0: tensor<3x2xf32>)"}}
  vm.export @__init
  vm.func private @__init() {
    %null = vm.const.ref.zero : !vm.buffer
    %c2 = vm.const.i32 2
    %c7 = vm.const.i32 7
    %c1 = vm.const.i32 1
    %c14 = vm.const.i32 14
    %c-1 = vm.const.i64 -1
    %zero = vm.const.i64.zero
    %zero_0 = vm.const.i32.zero
    %ref = vm.call @hal.devices.get(%zero_0) {nosideeffects} : (i32) -> !vm.ref<!hal.device>
    %_utf8_hal_executable_format_EAB228F999C2D3A1 = vm.const.ref.rodata @_utf8_hal_executable_format_EAB228F999C2D3A1 : !vm.buffer
    %_utf8_embedded_elf_arm_64_48330F48BB3EF6E0 = vm.const.ref.rodata @_utf8_embedded_elf_arm_64_48330F48BB3EF6E0 : !vm.buffer
    %0:2 = vm.call @hal.device.query.i64(%ref, %_utf8_hal_executable_format_EAB228F999C2D3A1, %_utf8_embedded_elf_arm_64_48330F48BB3EF6E0) {nosideeffects} : (!vm.ref<!hal.device>, !vm.buffer, !vm.buffer) -> (i32, i64)
    %nz = vm.cmp.nz.i64 %0#1 : i64
    %1 = vm.select.i32 %0#0, %nz, %zero_0 : i32
    %ref_1 = vm.call.variadic @hal.descriptor_set_layout.create(%ref, %zero_0, [(%zero_0, %c7, %c1), (%c1, %c7, %c1), (%c2, %c7, %zero_0)]) {nosideeffects} : (!vm.ref<!hal.device>, i32, tuple<i32, i32, i32> ...) -> !vm.ref<!hal.descriptor_set_layout>
    %ref_2 = vm.call.variadic @hal.pipeline_layout.create(%ref, %zero_0, [%ref_1]) {nosideeffects} : (!vm.ref<!hal.device>, i32, !vm.ref<!hal.descriptor_set_layout> ...) -> !vm.ref<!hal.pipeline_layout>
    %2 = vm.select.i64 %1, %zero, %c-1 : i64
    %eq = vm.cmp.eq.i64 %2, %zero : i64
    vm.global.store.i32 %1, @_device_query_0 : i32
    vm.global.store.ref %ref_2, @_pipeline_layout_0 : !vm.ref<!hal.pipeline_layout>
    vm.cond_br %eq, ^bb1, ^bb2
  ^bb1:  // pred: ^bb0
    %_pipeline_layout_0 = vm.global.load.ref @_pipeline_layout_0 : !vm.ref<!hal.pipeline_layout>
    %add_dispatch_0_embedded_elf_arm_64 = vm.const.ref.rodata @add_dispatch_0_embedded_elf_arm_64 : !vm.buffer
    %ref_3 = vm.call.variadic @hal.executable.create(%ref, %_utf8_embedded_elf_arm_64_48330F48BB3EF6E0, %add_dispatch_0_embedded_elf_arm_64, %null, [%_pipeline_layout_0]) {nosideeffects} : (!vm.ref<!hal.device>, !vm.buffer, !vm.buffer, !vm.buffer, !vm.ref<!hal.pipeline_layout> ...) -> !vm.ref<!hal.executable>
    vm.global.store.ref %ref_3, @_executable_add_dispatch_0 : !vm.ref<!hal.executable>
    vm.return
  ^bb2:  // pred: ^bb0
    vm.fail %c14, "none of the executable binaries in the module are supported by the runtime"
  }
}

// -----// IR Dump After DropCompilerHints (iree-util-drop-compiler-hints) //----- //
vm.module public @module {
  vm.global.i32 private mutable @_device_query_0 : i32
  vm.global.ref private mutable @_pipeline_layout_0 : !vm.ref<!hal.pipeline_layout>
  vm.global.ref private mutable @_executable_add_dispatch_0 : !vm.ref<!hal.executable>
  vm.rodata private @add_dispatch_0_embedded_elf_arm_64 {alignment = 16 : i64, mime_type = "application/x-elf"} dense<"…"> : vector<3472xi8>
  vm.rodata private @_utf8_hal_executable_format_EAB228F999C2D3A1 {alignment = 1 : i64} "hal.executable.format"
  vm.rodata private @_utf8_embedded_elf_arm_64_48330F48BB3EF6E0 {alignment = 1 : i64} "embedded-elf-arm_64"
  vm.import private @hal.buffer.assert(%buffer : !vm.ref<!hal.buffer>, %message : !vm.buffer, %allocator : !vm.ref<!hal.allocator>, %minimum_length : i64, %memory_types : i32, %buffer_usage : i32)
  vm.import private @hal.buffer_view.create(%buffer : !vm.ref<!hal.buffer>, %source_offset : i64, %source_length : i64, %element_type : i32, %encoding_type : i32, %shape : i64 ...) -> !vm.ref<!hal.buffer_view> attributes {nosideeffects}
  vm.import private @hal.buffer_view.assert(%buffer_view : !vm.ref<!hal.buffer_view>, %message : !vm.buffer, %element_type : i32, %encoding_type : i32, %shape : i64 ...)
  vm.import private @hal.buffer_view.buffer(%buffer_view : !vm.ref<!hal.buffer_view>) -> !vm.ref<!hal.buffer> attributes {nosideeffects}
  vm.import private @hal.command_buffer.create(%device : !vm.ref<!hal.device>, %modes : i32, %command_categories : i32, %binding_capacity : i32) -> !vm.ref<!hal.command_buffer>
  vm.import private @hal.command_buffer.finalize(%command_buffer : !vm.ref<!hal.command_buffer>)
  vm.import private @hal.command_buffer.execution_barrier(%command_buffer : !vm.ref<!hal.command_buffer>, %source_stage_mask : i32, %target_stage_mask : i32, %flags : i32)
  vm.import private @hal.command_buffer.push_descriptor_set(%command_buffer : !vm.ref<!hal.command_buffer>, %pipeline_layout : !vm.ref<!hal.pipeline_layout>, %set : i32, %bindings : tuple<i32, i32, !vm.ref<!hal.buffer>, i64, i64> ...)
  vm.import private @hal.command_buffer.dispatch(%command_buffer : !vm.ref<!hal.command_buffer>, %executable : !vm.ref<!hal.executable>, %entry_point : i32, %workgroup_x : i32, %workgroup_y : i32, %workgroup_z : i32)
  vm.import private @hal.descriptor_set_layout.create(%device : !vm.ref<!hal.device>, %flags : i32, %bindings : tuple<i32, i32, i32> ...) -> !vm.ref<!hal.descriptor_set_layout> attributes {nosideeffects}
  vm.import private @hal.device.allocator(%device : !vm.ref<!hal.device>) -> !vm.ref<!hal.allocator> attributes {nosideeffects}
  vm.import private @hal.device.query.i64(%device : !vm.ref<!hal.device>, %category : !vm.buffer, %key : !vm.buffer) -> (i32, i64) attributes {nosideeffects}
  vm.import private @hal.device.queue.alloca(%device : !vm.ref<!hal.device>, %queue_affinity : i64, %wait_fence : !vm.ref<!hal.fence>, %signal_fence : !vm.ref<!hal.fence>, %pool : i32, %memory_types : i32, %buffer_usage : i32, %allocation_size : i64) -> !vm.ref<!hal.buffer>
  vm.import private @hal.device.queue.execute(%device : !vm.ref<!hal.device>, %queue_affinity : i64, %wait_fence : !vm.ref<!hal.fence>, %signal_fence : !vm.ref<!hal.fence>, %command_buffers : !vm.ref<!hal.command_buffer> ...)
  vm.import private @hal.devices.get(%index : i32) -> !vm.ref<!hal.device> attributes {minimum_version = 2 : i32, nosideeffects}
  vm.import private @hal.executable.create(%device : !vm.ref<!hal.device>, %executable_format : !vm.buffer, %executable_data : !vm.buffer, %constants : !vm.buffer, %pipeline_layouts : !vm.ref<!hal.pipeline_layout> ...) -> !vm.ref<!hal.executable> attributes {nosideeffects}
  vm.import private @hal.fence.create(%device : !vm.ref<!hal.device>, %flags : i32) -> !vm.ref<!hal.fence>
  vm.import private @hal.fence.await(%timeout_millis : i32, %fences : !vm.ref<!hal.fence> ...) -> i32 attributes {vm.yield}
  vm.import private @hal.pipeline_layout.create(%device : !vm.ref<!hal.device>, %push_constants : i32, %set_layouts : !vm.ref<!hal.descriptor_set_layout> ...) -> !vm.ref<!hal.pipeline_layout> attributes {nosideeffects}
  vm.rodata private @_utf8_input0_F74E046E5FFA3735 {alignment = 1 : i64} "input0"
  vm.rodata private @_utf8_tensor_3C6209B4FD120BDC {alignment = 1 : i64} "tensor"
  vm.rodata private @_utf8_input1_E2E5222C371315B9 {alignment = 1 : i64} "input1"
  vm.func private @add(%arg0: !vm.ref<!hal.buffer_view>, %arg1: !vm.ref<!hal.buffer_view>) -> !vm.ref<!hal.buffer_view> attributes {iree.reflection = {iree.abi.declaration = "sync func @add(%input0: tensor<3x2xf32>, %input1: tensor<1x1xf32>) -> (%output0: tensor<3x2xf32>)"}} {
    %c13 = vm.const.i32 13
    %c28 = vm.const.i32 28
    %c2 = vm.const.i32 2
    %c3 = vm.const.i32 3
    %c48 = vm.const.i32 48
    %null = vm.const.ref.zero : !vm.ref<!hal.fence>
    %c3075 = vm.const.i32 3075
    %c16 = vm.const.i32 16
    %zero = vm.const.i32.zero
    %c1 = vm.const.i32 1
    %c553648160 = vm.const.i32 553648160
    %c3_0 = vm.const.i64 3
    %c2_1 = vm.const.i64 2
    %c1_2 = vm.const.i64 1
    %zero_3 = vm.const.i64.zero
    %c24 = vm.const.i64 24
    %c4 = vm.const.i64 4
    %c-1 = vm.const.i64 -1
    %c-1_4 = vm.const.i32 -1
    %_device_query_0 = vm.global.load.i32 @_device_query_0 : i32
    %_pipeline_layout_0 = vm.global.load.ref @_pipeline_layout_0 : !vm.ref<!hal.pipeline_layout>
    %_executable_add_dispatch_0 = vm.global.load.ref @_executable_add_dispatch_0 : !vm.ref<!hal.executable>
    %_utf8_input0_F74E046E5FFA3735 = vm.const.ref.rodata @_utf8_input0_F74E046E5FFA3735 : !vm.buffer
    vm.call.variadic @hal.buffer_view.assert(%arg0, %_utf8_input0_F74E046E5FFA3735, %c553648160, %c1, [%c3_0, %c2_1]) : (!vm.ref<!hal.buffer_view>, !vm.buffer, i32, i32, i64 ...)
    %ref = vm.call @hal.buffer_view.buffer(%arg0) {nosideeffects} : (!vm.ref<!hal.buffer_view>) -> !vm.ref<!hal.buffer>
    %ref_5 = vm.call @hal.devices.get(%zero) {nosideeffects} : (i32) -> !vm.ref<!hal.device>
    %ref_6 = vm.call @hal.device.allocator(%ref_5) {nosideeffects} : (!vm.ref<!hal.device>) -> !vm.ref<!hal.allocator>
    %_utf8_tensor_3C6209B4FD120BDC = vm.const.ref.rodata @_utf8_tensor_3C6209B4FD120BDC : !vm.buffer
    vm.call @hal.buffer.assert(%ref, %_utf8_tensor_3C6209B4FD120BDC, %ref_6, %c24, %c16, %c3075) : (!vm.ref<!hal.buffer>, !vm.buffer, !vm.ref<!hal.allocator>, i64, i32, i32) -> ()
    %_utf8_input1_E2E5222C371315B9 = vm.const.ref.rodata @_utf8_input1_E2E5222C371315B9 : !vm.buffer
    vm.call.variadic @hal.buffer_view.assert(%arg1, %_utf8_input1_E2E5222C371315B9, %c553648160, %c1, [%c1_2, %c1_2]) : (!vm.ref<!hal.buffer_view>, !vm.buffer, i32, i32, i64 ...)
    %ref_7 = vm.call @hal.buffer_view.buffer(%arg1) {nosideeffects} : (!vm.ref<!hal.buffer_view>) -> !vm.ref<!hal.buffer>
    vm.call @hal.buffer.assert(%ref_7, %_utf8_tensor_3C6209B4FD120BDC, %ref_6, %c4, %c16, %c3075) : (!vm.ref<!hal.buffer>, !vm.buffer, !vm.ref<!hal.allocator>, i64, i32, i32) -> ()
    %ref_8 = vm.call @hal.fence.create(%ref_5, %zero) : (!vm.ref<!hal.device>, i32) -> !vm.ref<!hal.fence>
    %ref_9 = vm.call @hal.device.queue.alloca(%ref_5, %c-1, %null, %ref_8, %zero, %c48, %c3075, %c24) : (!vm.ref<!hal.device>, i64, !vm.ref<!hal.fence>, !vm.ref<!hal.fence>, i32, i32, i32, i64) -> !vm.ref<!hal.buffer>
    %ref_10 = vm.call @hal.command_buffer.create(%ref_5, %c1, %c3, %zero) : (!vm.ref<!hal.device>, i32, i32, i32) -> !vm.ref<!hal.command_buffer>
    %0 = vm.select.i64 %_device_query_0, %zero_3, %c-1 : i64
    %eq = vm.cmp.eq.i64 %0, %zero_3 : i64
    vm.cond_br %eq, ^bb1, ^bb2
  ^bb1:  // pred: ^bb0
    vm.call.variadic @hal.command_buffer.push_descriptor_set(%ref_10, %_pipeline_layout_0, %zero, [(%zero, %zero, %ref, %zero_3, %c24), (%c1, %zero, %ref_7, %zero_3, %c4), (%c2, %zero, %ref_9, %zero_3, %c24)]) : (!vm.ref<!hal.command_buffer>, !vm.ref<!hal.pipeline_layout>, i32, tuple<i32, i32, !vm.ref<!hal.buffer>, i64, i64> ...)
    vm.call @hal.command_buffer.dispatch(%ref_10, %_executable_add_dispatch_0, %zero, %c1, %c1, %c1) : (!vm.ref<!hal.command_buffer>, !vm.ref<!hal.executable>, i32, i32, i32, i32) -> ()
    vm.br ^bb2
  ^bb2:  // 2 preds: ^bb0, ^bb1
    vm.call @hal.command_buffer.execution_barrier(%ref_10, %c28, %c13, %zero) : (!vm.ref<!hal.command_buffer>, i32, i32, i32) -> ()
    vm.call @hal.command_buffer.finalize(%ref_10) : (!vm.ref<!hal.command_buffer>) -> ()
    %ref_11 = vm.call @hal.fence.create(%ref_5, %zero) : (!vm.ref<!hal.device>, i32) -> !vm.ref<!hal.fence>
    vm.call.variadic @hal.device.queue.execute(%ref_5, %c-1, %ref_8, %ref_11, [%ref_10]) : (!vm.ref<!hal.device>, i64, !vm.ref<!hal.fence>, !vm.ref<!hal.fence>, !vm.ref<!hal.command_buffer> ...)
    %1 = vm.call.variadic @hal.fence.await(%c-1_4, [%ref_11]) : (i32, !vm.ref<!hal.fence> ...) -> i32
    vm.cond_br %1, ^bb4, ^bb3
  ^bb3:  // pred: ^bb2
    %ref_12 = vm.call.variadic @hal.buffer_view.create(%ref_9, %zero_3, %c24, %c553648160, %c1, [%c3_0, %c2_1]) {nosideeffects} : (!vm.ref<!hal.buffer>, i64, i64, i32, i32, i64 ...) -> !vm.ref<!hal.buffer_view>
    vm.return %ref_12 : !vm.ref<!hal.buffer_view>
  ^bb4:  // pred: ^bb2
    vm.fail %1, "failed to wait on timepoint"
  }
  vm.export @add attributes {iree.abi.stub, iree.reflection = {iree.abi.declaration = "sync func @add(%input0: tensor<3x2xf32>, %input1: tensor<1x1xf32>) -> (%output0: tensor<3x2xf32>)"}}
  vm.export @__init
  vm.func private @__init() {
    %null = vm.const.ref.zero : !vm.buffer
    %c2 = vm.const.i32 2
    %c7 = vm.const.i32 7
    %c1 = vm.const.i32 1
    %c14 = vm.const.i32 14
    %c-1 = vm.const.i64 -1
    %zero = vm.const.i64.zero
    %zero_0 = vm.const.i32.zero
    %ref = vm.call @hal.devices.get(%zero_0) {nosideeffects} : (i32) -> !vm.ref<!hal.device>
    %_utf8_hal_executable_format_EAB228F999C2D3A1 = vm.const.ref.rodata @_utf8_hal_executable_format_EAB228F999C2D3A1 : !vm.buffer
    %_utf8_embedded_elf_arm_64_48330F48BB3EF6E0 = vm.const.ref.rodata @_utf8_embedded_elf_arm_64_48330F48BB3EF6E0 : !vm.buffer
    %0:2 = vm.call @hal.device.query.i64(%ref, %_utf8_hal_executable_format_EAB228F999C2D3A1, %_utf8_embedded_elf_arm_64_48330F48BB3EF6E0) {nosideeffects} : (!vm.ref<!hal.device>, !vm.buffer, !vm.buffer) -> (i32, i64)
    %nz = vm.cmp.nz.i64 %0#1 : i64
    %1 = vm.select.i32 %0#0, %nz, %zero_0 : i32
    %ref_1 = vm.call.variadic @hal.descriptor_set_layout.create(%ref, %zero_0, [(%zero_0, %c7, %c1), (%c1, %c7, %c1), (%c2, %c7, %zero_0)]) {nosideeffects} : (!vm.ref<!hal.device>, i32, tuple<i32, i32, i32> ...) -> !vm.ref<!hal.descriptor_set_layout>
    %ref_2 = vm.call.variadic @hal.pipeline_layout.create(%ref, %zero_0, [%ref_1]) {nosideeffects} : (!vm.ref<!hal.device>, i32, !vm.ref<!hal.descriptor_set_layout> ...) -> !vm.ref<!hal.pipeline_layout>
    %2 = vm.select.i64 %1, %zero, %c-1 : i64
    %eq = vm.cmp.eq.i64 %2, %zero : i64
    vm.global.store.i32 %1, @_device_query_0 : i32
    vm.global.store.ref %ref_2, @_pipeline_layout_0 : !vm.ref<!hal.pipeline_layout>
    vm.cond_br %eq, ^bb1, ^bb2
  ^bb1:  // pred: ^bb0
    %_pipeline_layout_0 = vm.global.load.ref @_pipeline_layout_0 : !vm.ref<!hal.pipeline_layout>
    %add_dispatch_0_embedded_elf_arm_64 = vm.const.ref.rodata @add_dispatch_0_embedded_elf_arm_64 : !vm.buffer
    %ref_3 = vm.call.variadic @hal.executable.create(%ref, %_utf8_embedded_elf_arm_64_48330F48BB3EF6E0, %add_dispatch_0_embedded_elf_arm_64, %null, [%_pipeline_layout_0]) {nosideeffects} : (!vm.ref<!hal.device>, !vm.buffer, !vm.buffer, !vm.buffer, !vm.ref<!hal.pipeline_layout> ...) -> !vm.ref<!hal.executable>
    vm.global.store.ref %ref_3, @_executable_add_dispatch_0 : !vm.ref<!hal.executable>
    vm.return
  ^bb2:  // pred: ^bb0
    vm.fail %c14, "none of the executable binaries in the module are supported by the runtime"
  }
}

// -----// IR Dump After mlir::iree_compiler::IREE::VM::OrdinalAllocationPass (iree-vm-ordinal-allocation) //----- //
vm.module public @module attributes {ordinal_counts = #vm.ordinal_counts<import_funcs = 19, export_funcs = 2, internal_funcs = 2, global_bytes = 4, global_refs = 2, rodatas = 6, rwdatas = 0>} {
  vm.global.i32 private mutable @_device_query_0 {ordinal = 0 : i32} : i32
  vm.global.ref private mutable @_pipeline_layout_0 {ordinal = 0 : i32} : !vm.ref<!hal.pipeline_layout>
  vm.global.ref private mutable @_executable_add_dispatch_0 {ordinal = 1 : i32} : !vm.ref<!hal.executable>
  vm.rodata private @add_dispatch_0_embedded_elf_arm_64 {alignment = 16 : i64, mime_type = "application/x-elf", ordinal = 0 : i32} dense<"…"> : vector<3472xi8>
  vm.rodata private @_utf8_hal_executable_format_EAB228F999C2D3A1 {alignment = 1 : i64, ordinal = 1 : i32} "hal.executable.format"
  vm.rodata private @_utf8_embedded_elf_arm_64_48330F48BB3EF6E0 {alignment = 1 : i64, ordinal = 2 : i32} "embedded-elf-arm_64"
  vm.import private @hal.buffer.assert(%buffer : !vm.ref<!hal.buffer>, %message : !vm.buffer, %allocator : !vm.ref<!hal.allocator>, %minimum_length : i64, %memory_types : i32, %buffer_usage : i32) attributes {ordinal = 0 : i32}
  vm.import private @hal.buffer_view.create(%buffer : !vm.ref<!hal.buffer>, %source_offset : i64, %source_length : i64, %element_type : i32, %encoding_type : i32, %shape : i64 ...) -> !vm.ref<!hal.buffer_view> attributes {nosideeffects, ordinal = 1 : i32}
  vm.import private @hal.buffer_view.assert(%buffer_view : !vm.ref<!hal.buffer_view>, %message : !vm.buffer, %element_type : i32, %encoding_type : i32, %shape : i64 ...) attributes {ordinal = 2 : i32}
  vm.import private @hal.buffer_view.buffer(%buffer_view : !vm.ref<!hal.buffer_view>) -> !vm.ref<!hal.buffer> attributes {nosideeffects, ordinal = 3 : i32}
  vm.import private @hal.command_buffer.create(%device : !vm.ref<!hal.device>, %modes : i32, %command_categories : i32, %binding_capacity : i32) -> !vm.ref<!hal.command_buffer> attributes {ordinal = 4 : i32}
  vm.import private @hal.command_buffer.finalize(%command_buffer : !vm.ref<!hal.command_buffer>) attributes {ordinal = 5 : i32}
  vm.import private @hal.command_buffer.execution_barrier(%command_buffer : !vm.ref<!hal.command_buffer>, %source_stage_mask : i32, %target_stage_mask : i32, %flags : i32) attributes {ordinal = 6 : i32}
  vm.import private @hal.command_buffer.push_descriptor_set(%command_buffer : !vm.ref<!hal.command_buffer>, %pipeline_layout : !vm.ref<!hal.pipeline_layout>, %set : i32, %bindings : tuple<i32, i32, !vm.ref<!hal.buffer>, i64, i64> ...) attributes {ordinal = 7 : i32}
  vm.import private @hal.command_buffer.dispatch(%command_buffer : !vm.ref<!hal.command_buffer>, %executable : !vm.ref<!hal.executable>, %entry_point : i32, %workgroup_x : i32, %workgroup_y : i32, %workgroup_z : i32) attributes {ordinal = 8 : i32}
  vm.import private @hal.descriptor_set_layout.create(%device : !vm.ref<!hal.device>, %flags : i32, %bindings : tuple<i32, i32, i32> ...) -> !vm.ref<!hal.descriptor_set_layout> attributes {nosideeffects, ordinal = 9 : i32}
  vm.import private @hal.device.allocator(%device : !vm.ref<!hal.device>) -> !vm.ref<!hal.allocator> attributes {nosideeffects, ordinal = 10 : i32}
  vm.import private @hal.device.query.i64(%device : !vm.ref<!hal.device>, %category : !vm.buffer, %key : !vm.buffer) -> (i32, i64) attributes {nosideeffects, ordinal = 11 : i32}
  vm.import private @hal.device.queue.alloca(%device : !vm.ref<!hal.device>, %queue_affinity : i64, %wait_fence : !vm.ref<!hal.fence>, %signal_fence : !vm.ref<!hal.fence>, %pool : i32, %memory_types : i32, %buffer_usage : i32, %allocation_size : i64) -> !vm.ref<!hal.buffer> attributes {ordinal = 12 : i32}
  vm.import private @hal.device.queue.execute(%device : !vm.ref<!hal.device>, %queue_affinity : i64, %wait_fence : !vm.ref<!hal.fence>, %signal_fence : !vm.ref<!hal.fence>, %command_buffers : !vm.ref<!hal.command_buffer> ...) attributes {ordinal = 13 : i32}
  vm.import private @hal.devices.get(%index : i32) -> !vm.ref<!hal.device> attributes {minimum_version = 2 : i32, nosideeffects, ordinal = 14 : i32}
  vm.import private @hal.executable.create(%device : !vm.ref<!hal.device>, %executable_format : !vm.buffer, %executable_data : !vm.buffer, %constants : !vm.buffer, %pipeline_layouts : !vm.ref<!hal.pipeline_layout> ...) -> !vm.ref<!hal.executable> attributes {nosideeffects, ordinal = 15 : i32}
  vm.import private @hal.fence.create(%device : !vm.ref<!hal.device>, %flags : i32) -> !vm.ref<!hal.fence> attributes {ordinal = 16 : i32}
  vm.import private @hal.fence.await(%timeout_millis : i32, %fences : !vm.ref<!hal.fence> ...) -> i32 attributes {ordinal = 17 : i32, vm.yield}
  vm.import private @hal.pipeline_layout.create(%device : !vm.ref<!hal.device>, %push_constants : i32, %set_layouts : !vm.ref<!hal.descriptor_set_layout> ...) -> !vm.ref<!hal.pipeline_layout> attributes {nosideeffects, ordinal = 18 : i32}
  vm.rodata private @_utf8_input0_F74E046E5FFA3735 {alignment = 1 : i64, ordinal = 3 : i32} "input0"
  vm.rodata private @_utf8_tensor_3C6209B4FD120BDC {alignment = 1 : i64, ordinal = 4 : i32} "tensor"
  vm.rodata private @_utf8_input1_E2E5222C371315B9 {alignment = 1 : i64, ordinal = 5 : i32} "input1"
  vm.func private @add(%arg0: !vm.ref<!hal.buffer_view>, %arg1: !vm.ref<!hal.buffer_view>) -> !vm.ref<!hal.buffer_view> attributes {iree.reflection = {iree.abi.declaration = "sync func @add(%input0: tensor<3x2xf32>, %input1: tensor<1x1xf32>) -> (%output0: tensor<3x2xf32>)"}, ordinal = 0 : i32} {
    %c13 = vm.const.i32 13
    %c28 = vm.const.i32 28
    %c2 = vm.const.i32 2
    %c3 = vm.const.i32 3
    %c48 = vm.const.i32 48
    %null = vm.const.ref.zero : !vm.ref<!hal.fence>
    %c3075 = vm.const.i32 3075
    %c16 = vm.const.i32 16
    %zero = vm.const.i32.zero
    %c1 = vm.const.i32 1
    %c553648160 = vm.const.i32 553648160
    %c3_0 = vm.const.i64 3
    %c2_1 = vm.const.i64 2
    %c1_2 = vm.const.i64 1
    %zero_3 = vm.const.i64.zero
    %c24 = vm.const.i64 24
    %c4 = vm.const.i64 4
    %c-1 = vm.const.i64 -1
    %c-1_4 = vm.const.i32 -1
    %_device_query_0 = vm.global.load.i32 @_device_query_0 : i32
    %_pipeline_layout_0 = vm.global.load.ref @_pipeline_layout_0 : !vm.ref<!hal.pipeline_layout>
    %_executable_add_dispatch_0 = vm.global.load.ref @_executable_add_dispatch_0 : !vm.ref<!hal.executable>
    %_utf8_input0_F74E046E5FFA3735 = vm.const.ref.rodata @_utf8_input0_F74E046E5FFA3735 : !vm.buffer
    vm.call.variadic @hal.buffer_view.assert(%arg0, %_utf8_input0_F74E046E5FFA3735, %c553648160, %c1, [%c3_0, %c2_1]) : (!vm.ref<!hal.buffer_view>, !vm.buffer, i32, i32, i64 ...)
    %ref = vm.call @hal.buffer_view.buffer(%arg0) {nosideeffects} : (!vm.ref<!hal.buffer_view>) -> !vm.ref<!hal.buffer>
    %ref_5 = vm.call @hal.devices.get(%zero) {nosideeffects} : (i32) -> !vm.ref<!hal.device>
    %ref_6 = vm.call @hal.device.allocator(%ref_5) {nosideeffects} : (!vm.ref<!hal.device>) -> !vm.ref<!hal.allocator>
    %_utf8_tensor_3C6209B4FD120BDC = vm.const.ref.rodata @_utf8_tensor_3C6209B4FD120BDC : !vm.buffer
    vm.call @hal.buffer.assert(%ref, %_utf8_tensor_3C6209B4FD120BDC, %ref_6, %c24, %c16, %c3075) : (!vm.ref<!hal.buffer>, !vm.buffer, !vm.ref<!hal.allocator>, i64, i32, i32) -> ()
    %_utf8_input1_E2E5222C371315B9 = vm.const.ref.rodata @_utf8_input1_E2E5222C371315B9 : !vm.buffer
    vm.call.variadic @hal.buffer_view.assert(%arg1, %_utf8_input1_E2E5222C371315B9, %c553648160, %c1, [%c1_2, %c1_2]) : (!vm.ref<!hal.buffer_view>, !vm.buffer, i32, i32, i64 ...)
    %ref_7 = vm.call @hal.buffer_view.buffer(%arg1) {nosideeffects} : (!vm.ref<!hal.buffer_view>) -> !vm.ref<!hal.buffer>
    vm.call @hal.buffer.assert(%ref_7, %_utf8_tensor_3C6209B4FD120BDC, %ref_6, %c4, %c16, %c3075) : (!vm.ref<!hal.buffer>, !vm.buffer, !vm.ref<!hal.allocator>, i64, i32, i32) -> ()
    %ref_8 = vm.call @hal.fence.create(%ref_5, %zero) : (!vm.ref<!hal.device>, i32) -> !vm.ref<!hal.fence>
    %ref_9 = vm.call @hal.device.queue.alloca(%ref_5, %c-1, %null, %ref_8, %zero, %c48, %c3075, %c24) : (!vm.ref<!hal.device>, i64, !vm.ref<!hal.fence>, !vm.ref<!hal.fence>, i32, i32, i32, i64) -> !vm.ref<!hal.buffer>
    %ref_10 = vm.call @hal.command_buffer.create(%ref_5, %c1, %c3, %zero) : (!vm.ref<!hal.device>, i32, i32, i32) -> !vm.ref<!hal.command_buffer>
    %0 = vm.select.i64 %_device_query_0, %zero_3, %c-1 : i64
    %eq = vm.cmp.eq.i64 %0, %zero_3 : i64
    vm.cond_br %eq, ^bb1, ^bb2
  ^bb1:  // pred: ^bb0
    vm.call.variadic @hal.command_buffer.push_descriptor_set(%ref_10, %_pipeline_layout_0, %zero, [(%zero, %zero, %ref, %zero_3, %c24), (%c1, %zero, %ref_7, %zero_3, %c4), (%c2, %zero, %ref_9, %zero_3, %c24)]) : (!vm.ref<!hal.command_buffer>, !vm.ref<!hal.pipeline_layout>, i32, tuple<i32, i32, !vm.ref<!hal.buffer>, i64, i64> ...)
    vm.call @hal.command_buffer.dispatch(%ref_10, %_executable_add_dispatch_0, %zero, %c1, %c1, %c1) : (!vm.ref<!hal.command_buffer>, !vm.ref<!hal.executable>, i32, i32, i32, i32) -> ()
    vm.br ^bb2
  ^bb2:  // 2 preds: ^bb0, ^bb1
    vm.call @hal.command_buffer.execution_barrier(%ref_10, %c28, %c13, %zero) : (!vm.ref<!hal.command_buffer>, i32, i32, i32) -> ()
    vm.call @hal.command_buffer.finalize(%ref_10) : (!vm.ref<!hal.command_buffer>) -> ()
    %ref_11 = vm.call @hal.fence.create(%ref_5, %zero) : (!vm.ref<!hal.device>, i32) -> !vm.ref<!hal.fence>
    vm.call.variadic @hal.device.queue.execute(%ref_5, %c-1, %ref_8, %ref_11, [%ref_10]) : (!vm.ref<!hal.device>, i64, !vm.ref<!hal.fence>, !vm.ref<!hal.fence>, !vm.ref<!hal.command_buffer> ...)
    %1 = vm.call.variadic @hal.fence.await(%c-1_4, [%ref_11]) : (i32, !vm.ref<!hal.fence> ...) -> i32
    vm.cond_br %1, ^bb4, ^bb3
  ^bb3:  // pred: ^bb2
    %ref_12 = vm.call.variadic @hal.buffer_view.create(%ref_9, %zero_3, %c24, %c553648160, %c1, [%c3_0, %c2_1]) {nosideeffects} : (!vm.ref<!hal.buffer>, i64, i64, i32, i32, i64 ...) -> !vm.ref<!hal.buffer_view>
    vm.return %ref_12 : !vm.ref<!hal.buffer_view>
  ^bb4:  // pred: ^bb2
    vm.fail %1, "failed to wait on timepoint"
  }
  vm.export @add attributes {iree.abi.stub, iree.reflection = {iree.abi.declaration = "sync func @add(%input0: tensor<3x2xf32>, %input1: tensor<1x1xf32>) -> (%output0: tensor<3x2xf32>)"}, ordinal = 0 : i32}
  vm.export @__init attributes {ordinal = 1 : i32}
  vm.func private @__init() attributes {ordinal = 1 : i32} {
    %null = vm.const.ref.zero : !vm.buffer
    %c2 = vm.const.i32 2
    %c7 = vm.const.i32 7
    %c1 = vm.const.i32 1
    %c14 = vm.const.i32 14
    %c-1 = vm.const.i64 -1
    %zero = vm.const.i64.zero
    %zero_0 = vm.const.i32.zero
    %ref = vm.call @hal.devices.get(%zero_0) {nosideeffects} : (i32) -> !vm.ref<!hal.device>
    %_utf8_hal_executable_format_EAB228F999C2D3A1 = vm.const.ref.rodata @_utf8_hal_executable_format_EAB228F999C2D3A1 : !vm.buffer
    %_utf8_embedded_elf_arm_64_48330F48BB3EF6E0 = vm.const.ref.rodata @_utf8_embedded_elf_arm_64_48330F48BB3EF6E0 : !vm.buffer
    %0:2 = vm.call @hal.device.query.i64(%ref, %_utf8_hal_executable_format_EAB228F999C2D3A1, %_utf8_embedded_elf_arm_64_48330F48BB3EF6E0) {nosideeffects} : (!vm.ref<!hal.device>, !vm.buffer, !vm.buffer) -> (i32, i64)
    %nz = vm.cmp.nz.i64 %0#1 : i64
    %1 = vm.select.i32 %0#0, %nz, %zero_0 : i32
    %ref_1 = vm.call.variadic @hal.descriptor_set_layout.create(%ref, %zero_0, [(%zero_0, %c7, %c1), (%c1, %c7, %c1), (%c2, %c7, %zero_0)]) {nosideeffects} : (!vm.ref<!hal.device>, i32, tuple<i32, i32, i32> ...) -> !vm.ref<!hal.descriptor_set_layout>
    %ref_2 = vm.call.variadic @hal.pipeline_layout.create(%ref, %zero_0, [%ref_1]) {nosideeffects} : (!vm.ref<!hal.device>, i32, !vm.ref<!hal.descriptor_set_layout> ...) -> !vm.ref<!hal.pipeline_layout>
    %2 = vm.select.i64 %1, %zero, %c-1 : i64
    %eq = vm.cmp.eq.i64 %2, %zero : i64
    vm.global.store.i32 %1, @_device_query_0 : i32
    vm.global.store.ref %ref_2, @_pipeline_layout_0 : !vm.ref<!hal.pipeline_layout>
    vm.cond_br %eq, ^bb1, ^bb2
  ^bb1:  // pred: ^bb0
    %_pipeline_layout_0 = vm.global.load.ref @_pipeline_layout_0 : !vm.ref<!hal.pipeline_layout>
    %add_dispatch_0_embedded_elf_arm_64 = vm.const.ref.rodata @add_dispatch_0_embedded_elf_arm_64 : !vm.buffer
    %ref_3 = vm.call.variadic @hal.executable.create(%ref, %_utf8_embedded_elf_arm_64_48330F48BB3EF6E0, %add_dispatch_0_embedded_elf_arm_64, %null, [%_pipeline_layout_0]) {nosideeffects} : (!vm.ref<!hal.device>, !vm.buffer, !vm.buffer, !vm.buffer, !vm.ref<!hal.pipeline_layout> ...) -> !vm.ref<!hal.executable>
    vm.global.store.ref %ref_3, @_executable_add_dispatch_0 : !vm.ref<!hal.executable>
    vm.return
  ^bb2:  // pred: ^bb0
    vm.fail %c14, "none of the executable binaries in the module are supported by the runtime"
  }
}

